model/model.pth (torch, 49601 bytes, 12 tensors)

linear1.weight f4 [256, 11]
000000 20 76 d4 bd 15 59 0c be e8 cb 92 3d 80 36 e8 bc
       -0.10374093 -0.13705857 0.07167798 -0.0283463
000010 10 6a 5d 3d dd 6b 85 be 34 f6 0c 3e 30 61 8e bd
       0.054056227 -0.26058856 0.13765794 -0.06952131
000020 de 6d 76 be 46 f5 70 be 02 c0 f4 bd 01 97 01 be
       -0.24065349 -0.23531064 -0.11950685 -0.1265526
000030 66 56 2c 3e eb 82 90 3e 69 ba c9 3d 7d 47 60 be
       0.16829833 0.28224882 0.09850008 -0.2190227
000040 62 67 3a be a6 a5 91 3e f8 fd 90 3e d1 8f 03 bd
       -0.182035 0.28446692 0.28318763 -0.032119576
000050 5e 6b b6 3d 88 37 71 3e cd d2 5b 3e 37 1f 87 3e
       0.089071974 0.2355634 0.21467133 0.26391003
000060 07 f9 90 3e 08 41 e7 3d 04 77 15 3e 11 2e 55 bd
       0.28314993 0.112917006 0.14596182 -0.052045885
000070 68 01 6c 3e be 89 86 3e f9 2a 19 3e 39 c9 80 be
       0.23047411 0.26276964 0.14957799 -0.2515352
000080 fd 9c f0 bd 20 f1 3b 3c f0 46 c8 3d 9d d2 86 3e
       -0.11748693 0.011471063 0.09779155 0.2633256
000090 6c 01 90 3e 63 d6 9c 3e 20 ee 32 bd c8 62 82 3e
       0.28126085 0.30632314 -0.043684125 0.2546599
0000a0 5e ba 28 be d5 52 00 be 84 7e a6 bd 49 e5 4c be
       -0.16477343 -0.12531598 -0.081296 -0.2000934
0000b0 a6 38 5a 3b 75 f8 ab 3d 15 82 49 3e 99 b9 e8 bd
       0.0033297925 0.08396999 0.19678529 -0.11363525
0000c0 97 77 8a 3d fd 2e 80 be 1d 78 6d be 8d 9a 21 be
       0.06761091 -0.2503585 -0.23190351 -0.15781613
0000d0 56 65 95 3e d2 70 54 3e b2 16 c3 3d 00 a8 03 ba
       0.29178876 0.20746163 0.09525813 -0.00050222874
0000e0 d8 2c 69 bd b4 e7 83 bd 40 cb 98 3b 89 07 86 be
       -0.056927532 -0.06440678 0.004662901 -0.26177624
0000f0 84 66 3e be 5b fb 09 be 6c 8d fe bd d0 6e 66 3d
       -0.18593794 -0.13474791 -0.12429318 0.056258023
000100 94 0f 01 3e ff f5 05 be 72 1b 7f 3b c7 7f 29 be
       0.12603599 -0.13082121 0.003892627 -0.1655265
000110 0f 63 14 bc db 53 76 3e b8 9c 70 3d 7d 83 86 be
       -0.0090568205 0.24055426 0.05874321 -0.26272193
000120 d8 4a 97 bd a5 01 71 be 37 df 84 3d 18 81 9d 3d
       -0.07387322 -0.23535784 0.06487887 0.07690638
000130 46 28 d1 3c 79 90 42 3e 28 40 f6 3d 1c 5a 25 be
       0.0255319 0.19000424 0.120239556 -0.16147655
000140 5f c4 3c 3e 25 39 8b 3e c4 52 c7 bd 15 65 95 3e
       0.18434285 0.27192035 -0.09732583 0.29178682
000150 8f 4e 48 be 1a 58 98 3e 05 fc 0d be b3 50 3d 3d
       -0.19561218 0.29754716 -0.13865669 0.04621954
000160 75 f1 85 be 9c 33 9a 3e 0c ca 4e be ec de db bd
       -0.2616078 0.301175 -0.20194262 -0.10735878
000170 be c5 71 3c 95 5c c5 3d 70 7c 50 be 48 c4 70 3e
       0.014756618 0.09636799 -0.20359969 0.23512375
000180 c5 60 bc 3d 00 7c 3c bd bc 4b cb 3d bf 74 87 3e
       0.09198145 -0.046016693 0.099265546 0.26456258
000190 1e 78 2a 3d 4e 93 ef bc 22 74 4f be 1f 7c 39 3e
       0.04161846 -0.029245045 -0.20259145 0.18113755
0001a0 b9 19 8e 3b 49 f0 0d 3e 6b 5b 9a 3e 1c 60 39 3e
       0.0043365625 0.13861193 0.3014787 0.18103069
0001b0 85 f5 23 3b a0 22 69 bd a3 cc 91 bb 16 c0 25 3e
       0.0025018167 -0.056917787 -0.0044494434 0.16186556
0001c0 d9 7f 1e 3e d9 fe 80 be 3f 07 4e be 51 63 6a be
       0.15478458 -0.25194433 -0.20119952 -0.22889449
0001d0 6b 61 6a 3e 17 c0 42 be 01 34 a8 3e e5 08 f7 3c
       0.22888725 -0.19018589 0.32852176 0.030155608
0001e0 51 1e f9 3d 26 3a 62 3e 18 86 ed bd 32 46 47 be
       0.121639855 0.22092494 -0.11597842 -0.19460371
0001f0 e9 79 00 3e 2e 1b b1 bd e3 f3 15 be 65 70 d5 3d
       0.12546505 -0.08647762 -0.14643817 0.10421828
000200 28 17 3a 3e 3a 2c 8a be 6a 17 fc 3d f1 57 c0 bc
       0.18172896 -0.26986867 0.123091534 -0.023479434
000210 88 01 dc ba 68 85 ab 3e 27 29 07 be 3a fe b0 3d
       -0.0016785124 0.33500218 -0.13199292 0.0864224
000220 a6 ff 96 3e e6 23 6e 3e 79 f7 32 3d e2 10 b8 bd
       0.2949192 0.23255882 0.04369304 -0.08987595
000230 11 23 a8 3e d4 a7 83 be 8e ad 36 be 63 9d a5 3e
       0.32839254 -0.2571398 -0.17839643 0.3234664
000240 2a 7a 27 3e ab 1d c5 3d ba fa 92 3e fc e3 43 3e
       0.16355196 0.09624799 0.28706914 0.19129938
000250 fa 5c 20 3e 75 ec 4b 3e 47 27 b1 3d 63 eb 02 bd
       0.15660468 0.1991442 0.0865007 -0.031962764
000260 67 5f 31 3e 22 86 81 3d e2 a9 a0 3e 6a 8b 16 be
       0.1732155 0.06324412 0.3137961 -0.1470162
000270 76 b6 d8 bd 11 3e fb bd 83 91 19 3e dd 3d 28 be
       -0.10581677 -0.122676976 0.14996915 -0.16429849
000280 03 07 36 be 15 2a b9 3d 9d 9c 42 be fb 98 46 bd
       -0.17776112 0.0904123 -0.19005056 -0.048485737
000290 09 ec 2d 3e f0 c5 f2 bc 44 71 70 be ef 1a 62 be
       0.16984572 -0.0296354 -0.23480707 -0.22080587
0002a0 78 9c dd bd 7e ca f3 bd c8 e1 36 3d 80 9f 9d bc
       -0.1082086 -0.11903857 0.044648916 -0.019241095
0002b0 d8 97 bb bd 38 b5 77 bd b8 1d 23 be e4 ce 17 be
       -0.09159821 -0.060475558 -0.15929306 -0.14825016
0002c0 09 eb 75 bc 2e 33 50 be 4b dd d0 bd 05 ba 43 bd
       -0.01500965 -0.20332024 -0.10198458 -0.047784824
0002d0 cf f0 63 3e b8 2d 86 be c3 16 df 3d 89 f1 00 3e
       0.2225983 -0.26206756 0.10893013 0.12592138
0002e0 97 ab e3 3d 1e e3 72 3e db 26 27 be 3a d4 26 be
       0.111167125 0.23719451 -0.16323416 -0.16291896
0002f0 8b 21 48 be cc 8e 3a 3e 4e a9 59 be c3 8d 55 3e
       -0.19544046 0.18218535 -0.21255991 0.20854859
000300 d8 cd d5 3c a7 5f 34 be 65 50 8d 3d 18 10 3a be
       0.02609913 -0.17614613 0.069001 -0.18170202
000310 07 41 67 be 73 0a 95 bd a9 de 8c bd 1e 89 f8 bd
       -0.225834 -0.07277384 -0.068784066 -0.12135528
000320 e6 e4 64 3e 36 ff ee bd cb 70 2a 3e 0b 70 ca bd
       0.22352943 -0.116697714 0.1664459 -0.09884652
000330 22 86 3f bd 81 a9 29 bd b8 e4 cf bd ee 1d 2a 3e
       -0.04675878 -0.041421417 -0.101510465 0.1661298
000340 cc e6 0a 3e 94 d3 4e 3d 44 21 7b bc 8b 65 63 3d
       0.13564605 0.050494745 -0.015327755 0.05551676
000350 66 89 44 be fe 15 b4 3d 87 27 d8 3d 7b aa 16 be
       -0.19193038 0.08793257 0.10554414 -0.1471347
000360 04 08 8c 3d 4e 52 57 be da 95 4b 3e 2b 6b 45 3d
       0.06837466 -0.2102749 0.19881383 0.048197906
000370 d6 2e 7e 3e eb 9b 77 3e b1 b4 00 bc 6b d4 a0 3e
       0.24822554 0.24180572 -0.00785558 0.31412062
000380 fa 40 f9 bd 4d 84 1b be 90 86 ed ba 0b 1c 8a 3e
       -0.121705964 -0.15187187 -0.0018121768 0.2697452
000390 08 9d b2 3d 95 c9 1d 3e 22 9a 61 be 46 6d 58 3e
       0.087213576 0.15408929 -0.22031453 0.21135435
0003a0 30 92 86 be 62 ef 6c be 63 79 16 3c 62 45 e6 3c
       -0.26283407 -0.23138192 0.009184214 0.028109256
0003b0 ea 77 94 bd 12 a2 13 3d 8a 52 31 3e 69 92 74 bc
       -0.07249434 0.036043234 0.17316642 -0.014927485
0003c0 2b 79 7d be 84 c7 15 3e c3 1d 5f 3e 9d c1 46 be
       -0.24753253 0.1462689 0.21788697 -0.19409795
0003d0 7e a3 4c be 59 53 33 3d d4 83 90 be cf 9d 3f 3e
       -0.19984242 0.04378066 -0.28225577 0.18712543
0003e0 0a b5 05 3d a9 5e 29 3d fd ac 42 be 71 be 76 bd
       0.032643355 0.04135004 -0.19011302 -0.060240213
0003f0 b9 c4 ba bd c3 35 6e 3e ff 05 38 3d 9a af 84 3e
       -0.09119553 0.23262696 0.044927593 0.25915223

linear1.bias f4 [256]
000000 33 c7 d8 bc 9f 7f 42 3e 7c ab 8e 3e b8 f1 3b be
       -0.026462173 0.18993996 0.27865207 -0.18353927
000010 5e ae 2c 3e 3e 59 90 be 23 bd 8c bc 46 36 b1 3e
       0.16863391 -0.28193086 -0.017180031 0.3461172
000020 71 f2 23 3e b8 1e 09 3e 77 90 39 be a1 1d 6c bd
       0.16010453 0.13390625 -0.18121515 -0.057645444
000030 b4 ab 72 3e af 32 4a be 7b c0 a0 3d cc 5c 43 be
       0.23698312 -0.19745897 0.07849213 -0.19078368
000040 b0 d6 b7 bd df d3 9b bd a2 6c ce 3d 4d 45 12 be
       -0.08976495 -0.076087706 0.10079314 -0.14284249
000050 06 1d 57 3e e7 87 dd 3c 7d 82 19 3e fe 72 70 bd
       0.21007165 0.027042342 0.14991184 -0.058703415
000060 06 24 31 be e2 8b da bd d1 47 7e be 52 ec eb bd
       -0.17298898 -0.10671212 -0.24832083 -0.11519684
000070 0d f2 57 3e 4a ef 85 3e 9a c8 7f be 6e 67 a4 bb
       0.21088429 0.26159126 -0.24978867 -0.0050172126
000080 5d 9f 24 bc de e3 82 3e 3e 7b c8 3d 6f f9 b3 bd
       -0.010047761 0.25564474 0.097891316 -0.0878781
000090 fc a8 27 be f5 e1 06 bc fa fd 33 bd f7 d5 0c 3e
       -0.16373056 -0.008232583 -0.043943383 0.13753496
0000a0 03 5b 86 be 97 25 6a be 02 00 5d bd 3c 66 9a bd
       -0.2624131 -0.22865902 -0.053955086 -0.07539031
0000b0 ae e3 a6 3d ae 27 7d 3e 4a 95 e0 3d a0 ed af ba
       0.08148895 0.24722168 0.10965975 -0.0013422258
0000c0 c5 11 9c 3e 7e 31 73 3e 02 1a 36 bd 49 61 75 3d
       0.30482307 0.23749349 -0.044458397 0.05990723
0000d0 5c ce 9b 3d 2f b1 2b be 29 5d 39 be 02 dc 91 3e
       0.07607719 -0.16766809 -0.18101944 0.28488165
0000e0 7f 38 1b 3e 94 bc 1c be d9 d9 45 bc 2c a4 00 3e
       0.1515827 -0.15306312 -0.012075865 0.12562627
0000f0 3b 81 88 3e f7 57 bd bb b4 24 51 be 96 5d 80 3e
       0.26661095 -0.0057783085 -0.20424157 0.250714
000100 43 ec 98 3c ec 80 2b be 8d 4f fe 3c 20 08 6c 3c
       0.018667346 -0.16748399 0.031043792 0.014406234
000110 d9 45 7b be a7 0b b0 be 2a 1e 7d be 0b 98 56 3e
       -0.24538364 -0.3438389 -0.24718538 0.20956437
000120 6d ff 62 3e 9a 9b ff bd 43 3b 9c 3e 9b 7c 70 be
       0.2216775 -0.124808505 0.30513963 -0.23485033
000130 c2 cc 8f 3b 46 21 46 be e1 52 50 be fc 91 fb 3d
       0.0043884227 -0.1934863 -0.20344116 0.12283704
000140 b4 2c 88 bd f0 cf 29 be cc e2 30 be 3d 28 1e 3d
       -0.066491514 -0.16583228 -0.17274016 0.038612593
000150 66 6d f0 bd 0c a5 f6 3c 31 87 36 3e da 43 9b 3d
       -0.11739616 0.030107997 0.17825009 0.07581301
000160 58 8c bd bd ea c3 21 3e b7 74 8b be 46 bc 76 bd
       -0.09255284 0.15797392 -0.27237484 -0.060238145
000170 6a 05 13 be b9 a4 53 be d2 ef 48 3c 93 c9 2d 3e
       -0.14357534 -0.20668305 0.012264209 0.16971426
000180 11 53 65 3e 2a 37 50 3d c8 2e d5 bd b4 93 09 3e
       0.22394969 0.05083386 -0.104093134 0.1343525
000190 de 3b 11 be 18 d3 65 bd f6 00 9e bb 5c a1 9c 3e
       -0.14182994 -0.056109518 -0.004821892 0.30591857
0001a0 b4 19 d7 bc 55 f0 3c 3c 78 43 9a be 6f f2 83 3e
       -0.026257373 0.011531909 -0.301296 0.257709
0001b0 d9 e7 20 be c7 2d 9c 3e d5 c7 24 3e 94 7d 94 3e
       -0.15713443 0.30503675 0.16091855 0.29002059
0001c0 86 9c 64 be 72 14 97 be ba 1f cb 3d b6 93 9a be
       -0.22325334 -0.29507786 0.09918161 -0.3019082
0001d0 63 a3 2e 3e 0b 59 a5 3e de e4 55 3e 14 90 65 bd
       0.17054515 0.32294497 0.20888087 -0.056045607
0001e0 21 14 05 be 47 2b 8f 3e 70 d8 d5 3d 21 27 03 3e
       -0.1299596 0.27962705 0.10441673 0.12807895
0001f0 c4 70 47 3e ec 54 11 3c 85 49 ec bd f8 11 61 be
       0.1947661 0.008870345 -0.1153746 -0.21979511
000200 60 77 09 bd b9 e5 05 be f6 d5 b3 3e f0 d6 82 bc
       -0.03356111 -0.13075913 0.35124177 -0.01597163
000210 17 09 1c bd 1d 1b 81 be e0 a2 61 be 17 a2 30 3e
       -0.038094606 -0.25215998 -0.22034788 0.17249332
000220 08 96 93 3c 68 1b 09 be 87 0f 83 3e f8 e7 92 3e
       0.018015876 -0.13389361 0.25597784 0.28692603
000230 bb bf 8e be 19 71 32 3e 1e bb 85 bd d3 14 b4 bd
       -0.27880654 0.17425956 -0.065298304 -0.087930344
000240 87 9e 0f bd f7 1e 4f be 38 4b ff 3d 8f 2e ce bd
       -0.035063293 -0.20226656 0.12465519 -0.10067474
000250 df 0e 1e be 8a 3e 22 be 7c ad 35 be c1 44 75 bd
       -0.1543536 -0.1584417 -0.1774196 -0.059880022
000260 7d 0c 8a 3e e6 b0 1f be a0 be 49 bd a2 fd 30 bd
       0.26962653 -0.15594825 -0.04925406 -0.043210633
000270 12 3a 33 be f2 db c2 3c 75 23 3f be b8 c7 1d be
       -0.17502621 0.023786519 -0.1866587 -0.15408218
000280 78 6d 10 3e de 13 25 be 28 2e 25 bd b7 87 07 be
       0.14104259 -0.1612086 -0.04032722 -0.13235365
000290 cb df 80 bb 67 a0 f2 bd 8f 62 92 be 56 ec a0 3e
       -0.003932928 -0.118470006 -0.2859082 0.3143031
0002a0 eb 76 a1 bd c0 d4 a4 be d4 0e d1 bc 86 fd 55 be
       -0.0788401 -0.32193565 -0.025519766 -0.20897493
0002b0 16 de 22 3e 5a 1a a0 3d eb be 83 3e 84 fa 5a be
       0.15905032 0.07817526 0.25731596 -0.21384627
0002c0 27 8e ba 3e a0 33 c0 bd 9e e0 81 be a2 8a 4d be
       0.3643658 -0.09384847 -0.25366682 -0.20072415
0002d0 fa 7e 7a bb 8b 2a 42 3b 5b 37 a4 3e 04 3d 02 be
       -0.0038222657 0.0029627408 0.32073483 -0.12718588
0002e0 11 13 4c be 60 33 0b ba 05 77 a1 3e 2c 1c 68 3e
       -0.19929148 -0.00053100847 0.31536117 0.22666997
0002f0 53 c6 04 3e 27 0a 29 be b3 24 1c 3d 20 8f 84 3e
       0.1296628 -0.16507779 0.038120937 0.25890446
000300 d2 64 12 3e ab cb 57 be 00 f9 30 be 34 5b 19 bc
       0.14296272 -0.21073787 -0.17282486 -0.009360123
000310 92 4f 0d 3c 93 22 51 3e d3 10 67 be ad 8b c3 bd
       0.008624928 0.20423345 -0.22565012 -0.095481254
000320 10 de a0 bd 6e 5b 3c 3e 4c ab 85 be 5c 1c 81 be
       -0.07854855 0.18394253 -0.26107252 -0.2521695
000330 f1 91 03 bd d5 32 95 3e 03 7e 90 be 0d 1a 1f be
       -0.032121602 0.29140344 -0.2822114 -0.15537281
000340 4b 22 61 be 44 79 dc bd 91 55 92 be 5d d3 25 3e
       -0.21985738 -0.10765317 -0.28580907 0.1619391
000350 1d c5 dd bd 5e 4c 6d be 29 80 d2 3d 9b b5 25 3e
       -0.10828612 -0.23173663 0.10278351 0.16182558
000360 b4 5e 8f 3e 96 3f 07 3e c8 8b 6a 3d b8 17 2f be
       0.2800194 0.1320785 0.057262212 -0.17098892
000370 6a 41 cc bd 5a f2 4f 3e 07 2a 11 3e b7 bb cb 3c
       -0.09973414 0.20307294 0.14176188 0.024869783
000380 de 16 93 3e 75 85 b0 3e 4c 9d 49 be ca 6c 20 be
       0.28728384 0.3447682 -0.1968891 -0.156665
000390 1d 01 ae 3e 8a a9 08 3e 62 8b ac bd 4b 0a b0 3e
       0.33985224 0.13345924 -0.08425023 0.34382853
0003a0 b7 09 98 bd 71 77 7c be a0 64 b9 bd 96 d1 e3 bc
       -0.07423728 -0.24654938 -0.09052396 -0.0278099
0003b0 11 a0 a4 3a b3 7c fb bd 26 e3 58 bb f2 85 c8 3c
       0.001255991 -0.12279644 -0.0033094375 0.024477933
0003c0 e7 cf 8b be e6 75 0f be 02 9c 91 3b 60 a5 47 3d
       -0.27307054 -0.14009818 0.0044436464 0.0487417
0003d0 e2 80 83 be 14 69 4a bc c1 ac 2c 3e e9 cb 98 be
       -0.25684267 -0.012354154 0.16862775 -0.2984307
0003e0 1c a7 a3 3e 99 94 07 be ae f9 ad 3c c0 1c 20 be
       0.31963432 -0.1324028 0.02123722 -0.15635967
0003f0 aa 0e c4 bd ab 83 18 3e 34 97 47 3e 42 25 59 3e
       -0.095731094 0.14893977 0.19491273 0.21205619

linear2.weight f4 [3, 256]
000000 8d f2 8e bc 7f 92 7f bd 79 bb b5 bd 5d e7 8b 3a
       -0.017449642 -0.06239557 -0.08873648 0.001067381
000010 0c 52 4f 3b c4 e3 f1 3c e3 17 be bb 80 0d 8d bd
       0.0031634597 0.029527552 -0.0058011874 -0.068873405
000020 9d 57 31 3b 69 0e b8 bd 64 db 7f bd 3c 1b c3 3c
       0.0027060278 -0.089871235 -0.062465087 0.023816697
000030 6b 13 18 bd 5f c4 e0 bd b4 ec c1 bd 68 aa 41 3c
       -0.037127893 -0.10974955 -0.09468976 0.011820413
000040 cd 6e bd 3c 64 a8 34 3a 34 ad 3f 3c 0a 25 84 3c
       0.023124123 0.0006891547 0.01169901 0.016130943
000050 ad e8 00 bd 6c 09 ee bb f8 00 40 bd 3d 06 ea 3c
       -0.031471897 -0.007264307 -0.046875924 0.028567428
000060 00 ef 63 ba 29 3e 33 ba 7c bf e9 3b d7 c9 1a 3c
       -0.00086949766 -0.00068375707 0.0071334224 0.009447536
000070 19 05 59 bd b4 84 c9 bd e0 c9 45 bd 68 58 68 3c
       -0.052983377 -0.09839764 -0.048288226 0.014181234
000080 53 c5 23 3d fd 45 c9 bc 66 3a 7c bd 44 4b f8 bb
       0.039983105 -0.024569506 -0.06157913 -0.0075773317
000090 af 70 0f 3b ce 87 9e bd 99 96 91 bd c3 e6 a8 3c
       0.0021887233 -0.077407464 -0.07108802 0.020617848
0000a0 7e 05 40 bd 13 0c ff bb 40 ce 24 bb 57 4f ef 3d
       -0.046880238 -0.007783422 -0.0025147349 0.11685055
0000b0 16 47 45 bd 64 db af bd e3 f3 0a 3c 6d 1c 9c bd
       -0.048163496 -0.08586767 0.008480999 -0.07622609
0000c0 7d c5 ab bd 65 a9 7a bd 64 3c 37 bc 86 6b 8d bd
       -0.08387277 -0.061196703 -0.011183832 -0.06905274
0000d0 49 ba 9a bd d9 03 32 3d 94 0c be 3d e3 6b 1f 3b
       -0.07555062 0.0434607 0.09279743 0.002432578
0000e0 64 df 7d bd 63 fc 6c bd 1a 1d 44 3d 88 e7 22 3c
       -0.06198062 -0.057857882 0.047879316 0.009942897
0000f0 d7 0c ed bb fd 92 cc 3a 46 84 09 bd 7c 65 a1 bc
       -0.0072341966 0.0015607771 -0.03357341 -0.019701712
000100 aa a2 ff bc a2 84 ed bc 0a 41 d1 bc c4 14 90 3c
       -0.031205494 -0.028993908 -0.025543708 0.017588027
000110 af e1 96 3d 8e 3d f2 3c 35 48 18 3d 19 1c 8a 3b
       0.073672645 0.029570367 0.037178237 0.0042147753
000120 38 8c 1b 3d ec be 03 bb c1 84 03 be a9 89 b7 3c
       0.03797552 -0.0020102812 -0.1284361 0.022404509
000130 f7 6e 27 bd 9d f1 be bb 0c 4a 48 3d 03 f0 99 3d
       -0.04087731 -0.0058271424 0.04889874 0.07516482
000140 14 6c c6 bc a8 80 04 bd 5d c6 da bd ec cd 86 bd
       -0.024221458 -0.03234926 -0.10682366 -0.06582245
000150 8a 0e 6f bd d6 9c 8f bd 09 5b d6 bc 46 18 88 bd
       -0.058363475 -0.07012336 -0.026166456 -0.06645255
000160 98 7e 68 bd e5 fc ae bd 8e ee 6a 3d c2 7e fe 3a
       -0.056761354 -0.085443296 0.05735641 0.0019416439
000170 56 8b 85 3d 18 88 8a bd 08 7c 02 3d 1b 35 00 3d
       0.06520717 -0.06764239 0.031856567 0.031300645
000180 50 08 d0 bc 61 8c 90 bd e3 bf a9 3d 1f 2a 8d bd
       -0.025394589 -0.07058025 0.082885526 -0.068927996
000190 d6 c9 16 3d b5 84 96 bd eb 06 40 bc 4f 9e 89 bc
       0.03681358 -0.073495306 -0.011720399 -0.01679912
0001a0 86 84 96 bd 32 cc 51 bc 8a 44 c5 bc af 1c 82 bd
       -0.073494956 -0.012805032 -0.024080534 -0.06353127
0001b0 be 20 da b9 a8 ed 9d bd 4c aa cd bd 49 98 8b bd
       -0.00041604595 -0.07711345 -0.10042247 -0.068161555
0001c0 37 75 a5 bd 5a cc 96 bd 84 af cf bb 9a 7c a0 3d
       -0.080789976 -0.07363196 -0.0063380618 0.07836266
0001d0 fc 84 bc 3d e5 fa c0 bd ad e1 65 bd c5 8b 48 bd
       0.09205052 -0.09422854 -0.056123424 -0.04896142
0001e0 4e 67 1f 3c ef d1 cc bd 1c 08 0b bd 1f 66 37 bd
       0.00972922 -0.10000979 -0.03394328 -0.044775125
0001f0 41 59 a9 bd 9f cd ca bb 5d c9 8d bc e0 24 53 3c
       -0.08268977 -0.0061890627 -0.017307932 0.01288721
000200 e3 39 b3 bd aa 46 d8 bd bb b1 ba bd 63 9f 3e 3d
       -0.087512754 -0.10560353 -0.09115931 0.04653872
000210 4d 89 46 bd 27 f6 14 bd d0 8e cf 3d f2 50 9e bd
       -0.048470784 -0.03636756 0.10134661 -0.07730283
000220 19 e9 6d 3d 4d d1 03 3d 0a 0e 92 bc 21 e4 5f bd
       0.058083627 0.032182027 -0.01782896 -0.05466092
000230 a9 fc 28 bd b8 2d 5c ba b6 9d e1 bd 09 79 1e 3c
       -0.04125658 -0.00083991466 -0.11016409 0.009672412
000240 58 54 5a 3c 2d 15 c2 bc 92 5e a4 bd 99 81 4b bd
       0.013325773 -0.023691738 -0.0802585 -0.04968414
000250 07 10 ff bc 20 15 18 bc 9c b5 eb 3c df 02 ce bd
       -0.031135572 -0.00928238 0.028773122 -0.10059141
000260 8e 1b a6 bd 7a ed 7d bd 04 10 c6 bc fb 43 df bd
       -0.081107244 -0.061994053 -0.024177559 -0.10901638
000270 72 b9 9c 3b 50 2d 21 3d a6 9c ae bb 85 cf 03 bc
       0.004782849 0.039349854 -0.0053287325 -0.008045082
000280 13 53 81 3c f7 27 b1 bc 6a bc 29 3d 97 f5 b3 3c
       0.015786683 -0.021625502 0.04143945 0.021967692
000290 cb 89 19 bc 28 f9 19 3d 31 0c 23 3c 48 94 ca bd
       -0.009371231 0.03759113 0.009951637 -0.09891564
0002a0 ed a3 e0 bd fa 70 07 3d 85 f3 20 bd 37 5a 6b 3d
       -0.10968766 0.033066727 -0.03929474 0.057459082
0002b0 32 e5 9c bd 0d f6 b0 bd bd 14 33 bd 42 72 74 bd
       -0.07660903 -0.086406805 -0.04372095 -0.059679277
0002c0 4f 75 d9 bd e2 b6 da bd 94 bc 07 3d d5 98 67 bc
       -0.10618078 -0.106794134 0.033138826 -0.014135559
0002d0 73 ac 9d 3c 4d 7d 66 bd 89 93 8d 3d 79 67 87 3c
       0.01924727 -0.05627184 0.06912906 0.016528832
0002e0 6f b7 17 3c e8 05 ed 3b 34 e8 a9 bd dc 80 67 bd
       0.009260043 0.00723337 -0.08296242 -0.056519374
0002f0 3e a6 f4 bc 33 6a 14 bc b3 27 13 bd 89 ba f5 bd
       -0.029864427 -0.009058523 -0.035926532 -0.119984694
000300 c1 6b fc bb a7 67 88 bd ac 0b 12 bd 02 cc be 3b
       -0.007703275 -0.06660395 -0.035655662 0.0058226595
000310 c7 2f d2 bd 43 f1 ad bd d5 89 6a 3d f0 fb df bd
       -0.10263019 -0.08493283 0.057260353 -0.10936725
000320 e3 d7 94 bd a6 7a 3c 3d 98 3b 08 3d 4b 51 10 3b
       -0.072677396 0.046015404 0.033259958 0.002202111
000330 b6 a4 cb bd 79 00 26 3d 4c 60 6f bd 00 50 00 bd
       -0.099435255 0.040527795 -0.058441445 -0.031326294
000340 f0 1f cb 3c c2 9e a9 bb fa b9 72 bd 63 ca c3 bd
       0.024795502 -0.005176396 -0.059259392 -0.095600866
000350 91 5e 18 bc 80 93 1e ba 9f 00 c0 bd c3 50 94 bd
       -0.00929989 -0.0006049201 -0.093751185 -0.072419666
000360 ad 50 ef bd 81 2f 40 bd 32 fb 69 bd f6 c2 85 bd
       -0.116853096 -0.046920303 -0.057124324 -0.065313265
000370 4e 45 0b 3d 2b 31 8c bd 2a 49 88 bd 48 df 08 3d
       0.03400164 -0.068453155 -0.0665458 0.033416063
000380 ed 28 94 bd 35 73 bb bd 68 d1 b9 3d 20 9d 18 bd
       -0.072343685 -0.09152833 0.09073144 -0.03725922
000390 c2 69 b2 bd 98 c9 d6 bd 95 30 20 bd 07 4b 4f bd
       -0.08711578 -0.1048767 -0.03910883 -0.05060866
0003a0 30 40 ec bc 69 ef a1 3b 04 39 97 3d 1c 88 97 bc
       -0.0288392 0.00494187 0.07383922 -0.01849752
0003b0 06 b5 2c 3c b2 2a a8 bc 71 28 36 3c 96 d1 09 bd
       0.010541206 -0.020528171 0.01111804 -0.033647142
0003c0 aa cd 0a bd b5 84 4b bd 5a a5 50 3d 73 75 50 3c
       -0.033887543 -0.049687106 0.05093894 0.012723315
0003d0 51 04 68 bc 2d 75 9f bc 82 82 5b bd 40 80 64 bd
       -0.014161185 -0.019465053 -0.05359126 -0.05578637
0003e0 94 27 6d bd 03 42 a6 3d 35 f4 8c bd f6 f3 9b bd
       -0.057899073 0.081180595 -0.06882516 -0.07614891
0003f0 36 b2 e3 bc b6 dc 3c bd a0 77 41 3d 62 c5 1a 3d
       -0.027794939 -0.046108924 0.047233224 0.037785895

linear2.bias f4 [3]
000000 6c 96 b4 bd 8f 25 2f bd 3e ae 0d bd
       -0.08817753 -0.042760428 -0.03459

exp_avg f4 [256, 11]
000000 00 00 00 00 00 00 00 00 00 00 00 00 00 00 00 00
       0.0 0.0 0.0 0.0
000010 00 00 00 00 00 00 00 00 1d 30 06 36 1d 30 06 36
       0.0 0.0 1.9995562e-06 1.9995562e-06
000020 00 00 00 00 00 00 00 00 7d e7 a6 1c 6a ae c8 ba
       0.0 0.0 1.1044797e-21 -0.0015310769
000030 4e ce 89 b9 c3 ff 6d bd df b3 1a bd 20 5c aa 3c
       -0.00026284385 -0.05810524 -0.037769195 0.020795882
000040 2f 7f ad bc 24 11 bd 39 c3 12 4a 39 da ed 6f bd
       -0.02117881 0.0003606166 0.0001927121 -0.058576442
000050 de 05 b1 3c 3b 9f 72 bd e2 71 ee ba 2a 55 f2 b8
       0.021609243 -0.059233885 -0.0018191899 -0.00011555322
000060 e5 49 17 bd 02 c8 2d bd 98 db bd 3c 9e fe ed b9
       -0.036935706 -0.04242707 0.023176 -0.00045393867
000070 d4 86 a5 b9 6d 92 cd ba dc a8 27 bd ef 29 ba 3c
       -0.00031571707 -0.0015683897 -0.04093252 0.022725074
000080 65 be 31 bd 00 00 00 00 0a 4e cc b5 8b e9 44 3c
       -0.043394465 0.0 -1.5221897e-06 0.012018572
000090 3b e9 44 3c c4 a3 48 bb 00 00 00 00 ff 04 05 00
       0.012018497 -0.003061519 0.0 4.6097e-40
0000a0 8d bf 2f b4 b1 de 44 3c b2 91 48 bb 8b e9 44 3c
       -1.6367831e-07 0.012015984 -0.003060442 0.012018572
0000b0 9c 05 d1 39 57 54 63 b9 ec 39 28 bd 99 a3 b1 bc
       0.00039867766 -0.00021679826 -0.041070864 -0.021684455
0000c0 74 93 5f 3c ae 1e 95 bc 8a b8 ac 39 6c 75 0a 39
       0.013645995 -0.018203106 0.0003294389 0.00013204449
0000d0 29 58 27 bd cb 1c 7f 3c fd a0 24 bd 00 00 00 00
       -0.04085556 0.01557083 -0.040192593 0.0
0000e0 00 00 00 00 00 00 00 00 00 00 00 00 00 00 00 00
       0.0 0.0 0.0 0.0
0000f0 00 00 00 00 00 00 00 00 00 00 00 00 00 00 00 00
       0.0 0.0 0.0 0.0
000100 00 00 00 00 00 00 00 00 69 16 b1 39 e6 e6 9b b7
       0.0 0.0 0.00033776768 -1.858496e-05
000110 34 3d 63 3c c6 97 7d 3c 6a 56 8e bb 00 00 00 00
       0.013869572 0.01547808 -0.0043437975 0.0
000120 fc 48 78 39 ea ae 9c 39 3d e9 79 3c a2 b8 86 bb
       0.00023678312 0.0002988496 0.015253362 -0.0041113654
000130 28 ce 7f 3c d2 1b bc ba 71 79 89 b9 b5 9a 7a bd
       0.015613116 -0.0014351553 -0.00026221157 -0.061182696
000140 e4 34 37 bd e4 6e cc 3c d7 2d 99 bc bb 43 77 39
       -0.044728175 0.02495522 -0.018698616 0.00023580987
000150 f5 1b b9 b9 d9 25 81 bd b3 c6 d5 3c 19 c5 82 bd
       -0.0003530678 -0.06306047 0.026095724 -0.0638525
000160 45 b4 a0 b8 d8 99 fd b8 20 8e ff bc c7 55 c2 bc
       -7.662972e-05 -0.00012092636 -0.0311957 -0.023722542
000170 36 9a 54 3c f3 fd 0b bc 01 d1 b7 38 ba 0a ae b9
       0.01297622 -0.008544433 8.76505e-05 -0.00033195858
000180 9c a8 06 bd 79 f7 6c 3c 75 0c 06 bd 67 62 04 bb
       -0.032875642 0.014463299 -0.032726724 -0.0020200254
000190 66 77 ba b8 2f 59 9c bc 82 3b ac bc c0 2b 64 3c
       -8.891411e-05 -0.019085495 -0.02102447 0.013926446
0001a0 a2 5c c8 ba 0e a9 0d b8 a8 86 f3 b9 55 79 a9 bc
       -0.0015286396 -3.3774464e-05 -0.00046448899 -0.020687738
0001b0 06 0b 51 3c 6a 75 b8 bc bb de b9 b7 97 e6 74 b8
       0.012758976 -0.022516925 -2.2157436e-05 -5.8388887e-05
0001c0 12 bb c0 bc ea 6f 6e bc a5 f8 8b 39 13 44 0d bc
       -0.023526702 -0.01455305 0.000266974 -0.008622187
0001d0 0b 10 20 39 8d 82 f9 18 bc ca b9 bc f0 15 80 39
       0.00015264766 6.4496814e-24 -0.02267968 0.00024430407
0001e0 dc 01 bc bc e6 2f 23 3a 79 77 ed 36 00 00 00 00
       -0.022950105 0.0006225094 7.077059e-06 0.0
0001f0 8e 8c 85 39 78 5c d6 b9 53 4d 88 b8 7a 2a 7a b9
       0.00025472458 -0.00040886155 -6.499388e-05 -0.00023857682
000200 b4 52 83 ba 9a 8f 18 3a ec 3a e4 b9 00 29 11 b6
       -0.0010019154 0.0005819738 -0.0004353145 -2.163055e-06
000210 7b c1 46 ba ac 96 5a b9 a5 45 37 bd a4 0e ef bc
       -0.00075819314 -0.0002084623 -0.044744153 -0.029181786
000220 d0 b6 8a 3c 71 69 83 bc e3 1d ae 39 8b 2e 06 39
       0.016932875 -0.01604149 0.00033210134 0.00012796574
000230 99 91 39 bd 60 77 93 3c 61 1f 3a bd cb 05 1b bb
       -0.04530487 0.018001258 -0.04544008 -0.0023654576
000240 e6 34 00 b9 37 16 50 bc a7 55 84 bb 2d 1c b7 3b
       -0.00012226737 -0.012700609 -0.004038531 0.0055880756
000250 12 7b 19 bc 5e 98 dd 39 42 ad 5b 3a 98 6a 56 bc
       -0.009367721 0.00042265927 0.00083800044 -0.013086937
000260 22 8b b1 3b de 27 52 bc a3 53 03 bb 10 54 b5 b6
       0.0054181973 -0.012826888 -0.0020038865 -5.4040065e-06
000270 bb 4b 1f 36 c1 f0 00 bb 5a 51 ee 3a 8e 3c 75 38
       2.3736927e-06 -0.001967475 0.0018182204 5.8468948e-05
000280 02 d5 3e 38 33 18 5c 39 50 a8 ce 39 3a 2e 30 ba
       4.549791e-05 0.0002098985 0.00039416784 -0.00067207555
000290 c3 6d a5 ba 00 00 00 00 00 00 00 00 00 00 00 00
       -0.0012621213 0.0 0.0 0.0
0002a0 00 00 00 00 00 00 00 00 00 00 00 00 00 00 00 00
       0.0 0.0 0.0 0.0
0002b0 00 00 00 00 00 00 00 00 00 00 00 00 00 00 00 00
       0.0 0.0 0.0 0.0
0002c0 ea 0a 65 36 9c f0 97 36 5e 12 4c 00 8d ff 2d 37
       3.4130012e-06 4.5281613e-06 6.986087e-39 1.0371104e-05
0002d0 05 46 a7 39 ba 49 a3 36 e9 f3 17 38 38 8d 9b 38
       0.0003190489 4.8663615e-06 3.6228364e-05 7.41728e-05
0002e0 0b 82 e1 b9 0b 46 4e 3a 48 a7 79 b8 00 00 00 00
       -0.00043012234 0.00078687136 -5.952202e-05 0.0
0002f0 00 00 00 00 26 5d 2e b7 00 00 00 00 fd ef 96 b9
       0.0 -1.0392896e-05 0.0 -0.00028789035
000300 5a 93 b9 b6 00 00 00 00 0a b9 97 b9 6e 22 dc 10
       -5.5305836e-06 0.0 -0.0002893883 8.6827747e-29
000310 0b bd 75 9d 11 64 93 b9 7c 66 4a b8 54 8a a1 b8
       -3.2523213e-21 -0.0002811258 -4.8256e-05 -7.702844e-05
000320 8a 93 10 bd 73 46 0d bd c6 84 9b 3c b7 37 88 bb
       -0.035296954 -0.034491014 0.01898421 -0.0041570324
000330 a0 b7 38 38 a8 be 8c ba b5 e5 1f bd ed 93 aa 3c
       4.4040033e-05 -0.0010737972 -0.039037425 0.02082249
000340 f4 77 21 bd 82 57 56 b8 30 f2 b7 b6 0b a6 22 37
       -0.039421037 -5.1103074e-05 -5.4820193e-06 9.694612e-06
000350 06 5e 16 06 97 3a d1 bb 93 c5 c1 39 d8 b4 4b b7
       2.8280942e-35 -0.0063851583 0.00036959033 -1.2141849e-05
000360 64 e1 36 3a 00 00 00 00 70 83 d7 bb d6 07 0d 3a
       0.0006976335 0.0 -0.006576948 0.0005379891
000370 ee 8c 04 ba 27 c3 b7 b8 a9 8e 5e bc 5d 7f 61 bc
       -0.00050564006 -8.76247e-05 -0.0135838175 -0.013763276
000380 1e 26 25 3c ca 75 32 b8 7f 3c a2 38 d2 f6 64 b9
       0.010079889 -4.2548207e-05 7.73603e-05 -0.00021835722
000390 37 c5 5e bc e3 95 2a 3c 51 5b 65 bc 9c ba 41 b8
       -0.013596824 0.010411712 -0.013998822 -4.618858e-05
0003a0 c2 21 2a b7 71 15 84 b5 18 2f 86 39 87 f1 79 b9
       -1.01406495e-05 -9.841007e-07 0.0002559356 -0.00023836466
0003b0 12 9c b8 b9 b8 6a 97 b8 16 d3 66 b8 03 94 9c b9
       -0.00035211496 -7.220119e-05 -5.5032862e-05 -0.00029864916
0003c0 06 9e 28 b7 34 65 3f b9 2e f9 8c ba 00 00 00 00
       -1.0050373e-05 -0.0001825288 -0.0010755414 0.0
0003d0 00 00 00 00 70 ad 6a ba 00 00 00 00 db 4d 96 3a
       0.0 -0.0008952236 0.0 0.0011467295
0003e0 74 4d d3 38 29 9a d7 39 eb 0a ad b8 46 df 19 39
       0.00010075691 0.00041122854 -8.2513165e-05 0.00014674393
0003f0 d7 88 4e 39 38 89 89 3a 02 4b 9e 37 3c d4 85 3c
       0.00019696668 0.0010493165 1.8869996e-05 0.016336553

exp_avg_sq f4 [256, 11]
000000 00 00 00 00 00 00 00 00 00 00 00 00 00 00 00 00
       0.0 0.0 0.0 0.0
000010 00 00 00 00 00 00 00 00 7e 5b b6 33 f0 22 79 33
       0.0 0.0 8.491678e-08 5.8006606e-08
000020 00 00 00 00 00 00 00 00 c6 63 21 33 46 cc 6f 39
       0.0 0.0 3.7576477e-08 0.00022868914
000030 d8 7a a8 39 4a fd de 39 9d 2d f4 39 df e9 98 39
       0.00032134983 0.00042531855 0.0004657329 0.00029165947
000040 3e 7c cd 39 bb 24 f1 38 39 5f ab 39 89 14 2b 3a
       0.00039193215 0.00011498617 0.00032686608 0.00065261923
000050 87 a3 9c 39 c0 3b 72 3a 65 64 04 3a fa 03 a0 38
       0.00029876476 0.0009240471 0.00050503603 7.630135e-05
000060 af 2d 50 39 e9 18 d3 39 c7 4b b1 39 78 b1 9d 39
       0.00019853444 0.00040263616 0.0003381653 0.00030077598
000070 ef ee 77 38 91 5d c9 39 80 89 da 39 81 d4 c1 39
       5.9111913e-05 0.0003840742 0.00041682646 0.00036970156
000080 5a cc 3c 3a 00 00 00 00 58 d9 04 30 b5 5f 93 37
       0.00072020816 0.0 4.8330184e-10 1.7568333e-05
000090 f7 63 93 37 d2 04 b1 36 00 00 00 00 ec 34 53 30
       1.7570315e-05 5.275572e-06 0.0 7.683656e-10
0000a0 07 64 d7 30 9b 5d 93 37 3e 10 b1 36 b5 5f 93 37
       1.5671738e-09 1.7567354e-05 5.276902e-06 1.7568333e-05
0000b0 97 de 27 37 6a 17 a2 39 13 06 73 39 4a a5 88 39
       1.0005801e-05 0.00030916493 0.00023176549 0.0002606309
0000c0 dd e5 37 39 0e f5 30 39 f4 7b c5 38 44 e8 2c 39
       0.00017537871 0.00016875958 9.41678e-05 0.00016489724
0000d0 e7 23 d1 39 55 4d 30 39 a2 0d 09 3a 00 00 00 00
       0.00039890336 0.00016813476 0.00052281667 0.0
0000e0 00 00 00 00 00 00 00 00 00 00 00 00 00 00 00 00
       0.0 0.0 0.0 0.0
0000f0 00 00 00 00 00 00 00 00 00 00 00 00 00 00 00 00
       0.0 0.0 0.0 0.0
000100 00 00 00 00 00 00 00 00 53 df ea 36 c4 b2 15 38
       0.0 0.0 6.999742e-06 3.5690857e-05
000110 52 91 c5 37 b4 f7 92 38 16 ea 45 37 00 00 00 00
       2.35519e-05 7.007961e-05 1.1796617e-05 0.0
000120 a4 e4 e2 35 2c aa 07 36 01 c0 95 38 91 4d 32 37
       1.6904855e-06 2.021562e-06 7.140637e-05 1.0627687e-05
000130 b7 af 9a 38 74 d3 50 39 dc 1e 85 39 30 6f dc 39
       7.376022e-05 0.00019915198 0.0002539073 0.0004204451
000140 bc ff fc 39 cc 3f d3 39 e7 ef 9e 39 b4 37 c3 38
       0.00048255723 0.00040292589 0.0003031485 9.3087e-05
000150 dd 56 8d 39 c1 a0 1f 3a 8a 38 d3 39 72 ec 5b 3a
       0.00026958334 0.0006089323 0.0004028718 0.000838942
000160 f8 f0 1f 38 65 f2 4a 37 3d 88 cb 38 58 44 ad 38
       3.8132974e-05 1.2096575e-05 9.705171e-05 8.262013e-05
000170 45 75 f6 38 36 7d 90 38 40 7a ba 36 bf 57 57 38
       0.00011752037 6.8897774e-05 5.5574637e-06 5.1341714e-05
000180 53 43 d8 38 ab 51 f0 38 87 b9 1f 39 a0 77 21 3a
       0.00010312223 0.00011459304 0.00015232536 0.0006159488
000190 df 17 ab 36 fd 23 4e 38 d1 cc 86 39 65 11 ce 38
       5.098976e-06 4.9147744e-05 0.00025711072 9.8260854e-05
0001a0 1e 7a bf 39 4e da 61 38 88 a6 da 39 dc 6c 8a 39
       0.00036521343 5.3847492e-05 0.00041704276 0.00026402518
0001b0 07 fc 15 39 aa 2c 24 3a d1 69 e6 31 49 cf de 37
       0.00014303635 0.0006262759 6.705911e-09 2.6560987e-05
0001c0 bb 65 b6 38 b1 de 0c 38 17 51 08 36 8e e6 82 38
       8.697385e-05 3.3586e-05 2.031278e-06 6.241827e-05
0001d0 36 49 b4 37 dd 0b c4 33 42 30 f4 38 d0 4f b0 33
       2.1491764e-05 9.129119e-08 0.000116438154 8.2101565e-08
0001e0 ea 4c f4 38 7e 3a 8f 39 09 bf 27 38 00 00 00 00
       0.00011649153 0.00027318666 3.9993818e-05 0.0
0001f0 74 e6 0c 38 7a 82 e8 37 65 2d 46 39 92 e8 92 38
       3.3593227e-05 2.7717313e-05 0.00018899662 7.005142e-05
000200 7b 8c 9e 39 80 0b 96 37 b4 b7 c6 38 e1 e4 6b 39
       0.00030240775 1.7886749e-05 9.475593e-05 0.0002249661
000210 2e 76 15 38 76 e2 30 39 68 19 80 39 33 25 76 39
       3.563443e-05 0.00016869031 0.00024432992 0.00023474246
000220 d9 0b 47 39 7f 80 29 39 30 9d 5f 38 b2 cd f1 38
       0.00018982532 0.00016164964 5.3313735e-05 0.00011530089
000230 10 c3 b1 39 72 ad 41 39 54 b3 e6 39 b5 d4 41 3a
       0.00033905404 0.00018470528 0.00044002628 0.00073940615
000240 d1 5e b2 38 32 b5 b4 38 78 9a a7 39 1f 98 df 37
       8.505362e-05 8.616819e-05 0.0003196781 2.6654508e-05
000250 f8 23 06 3a 1e 50 a8 38 54 be 09 3a 50 ef ce 39
       0.0005117054 8.025787e-05 0.00052544964 0.00039469684
000260 10 5a a6 38 75 c0 5f 3a 20 72 12 3a 7d c5 79 36
       7.932272e-05 0.0008535453 0.0005586464 3.7218845e-06
000270 a8 1e 94 32 74 a8 67 39 f1 63 30 37 49 c6 9d 39
       1.7243408e-08 0.0002209263 1.0513687e-05 0.00030093107
000280 fa a4 34 38 28 7e b7 39 c6 43 6b 39 2c 8b 40 38
       4.306899e-05 0.00034998474 0.00022436594 4.590598e-05
000290 f5 43 0a 3a 00 00 00 00 00 00 00 00 00 00 00 00
       0.00052744086 0.0 0.0 0.0
0002a0 00 00 00 00 00 00 00 00 00 00 00 00 00 00 00 00
       0.0 0.0 0.0 0.0
0002b0 00 00 00 00 00 00 00 00 00 00 00 00 00 00 00 00
       0.0 0.0 0.0 0.0
0002c0 1d df f0 37 4a c9 62 36 e9 00 8b 2e d9 4d a1 33
       2.8714125e-05 3.379379e-06 6.32115e-11 7.511307e-08
0002d0 9c f2 8a 36 b6 70 15 33 57 2a f4 37 e6 0e 09 38
       4.140964e-06 3.4794276e-08 2.9106783e-05 3.267722e-05
0002e0 63 d8 b3 34 92 13 0a 38 f5 bd 9d 34 00 00 00 00
       3.349879e-07 3.291999e-05 2.938174e-07 0.0
0002f0 00 00 00 00 9c af 75 31 00 00 00 00 17 36 1c 36
       0.0 3.5752015e-09 0.0 2.3277296e-06
000300 e7 da 9d 35 00 00 00 00 93 38 5d 36 22 93 ef 33
       1.176112e-06 0.0 3.2964497e-06 1.1156068e-07
000310 26 f2 7b 34 8a 4d 63 36 d8 63 88 38 ba da a8 35
       2.346429e-07 3.387077e-06 6.503583e-05 1.2580633e-06
000320 53 c6 14 39 1d 6d 16 39 bc 9e 81 39 4e 43 6a 38
       0.00014188261 0.00014345763 0.00024723064 5.585263e-05
000330 a3 c4 ca 37 24 35 a0 38 70 9a 1c 39 c1 99 88 39
       2.4171843e-05 7.639293e-05 0.00014934852 0.00026054497
000340 95 aa 56 39 62 db 44 39 72 f2 df 35 2f 46 7d 32
       0.00020472177 0.00018773743 1.6685356e-06 1.4742496e-08
000350 c1 51 f4 33 f7 b4 ef 37 59 c6 14 39 c7 aa 47 38
       1.13770064e-07 2.8575289e-05 0.0001418827 4.7604346e-05
000360 65 a0 49 39 00 00 00 00 aa 84 9f 38 f3 6f 15 39
       0.00019228605 0.0 7.6064214e-05 0.00014251452
000370 67 f5 01 38 dd fa ec 36 42 37 bc 37 3f 72 1b 38
       3.0984545e-05 7.0625524e-06 2.2437078e-05 3.706128e-05
000380 fc 0a 86 38 28 f0 a3 37 a5 76 7b 36 0f 56 ea 37
       6.391664e-05 1.9542946e-05 3.7470975e-06 2.7935048e-05
000390 2c 7d 11 38 d2 7c 88 38 ea ba 6a 38 da 2e c9 38
       3.468727e-05 6.508235e-05 5.5964025e-05 9.593154e-05
0003a0 f8 d6 23 38 3d fa 5e 32 8f 24 2c 38 52 c6 dd 35
       3.9062434e-05 1.2978998e-08 4.1042043e-05 1.6523502e-06
0003b0 6e 6e 95 38 00 d2 e9 37 82 ba 10 39 10 e7 1e 36
       7.125443e-05 2.7873553e-05 0.0001380239 2.367833e-06
0003c0 38 cf e6 37 10 5c ed 38 25 30 d9 38 00 00 00 00
       2.751463e-05 0.000113181886 0.00010356334 0.0
0003d0 00 00 00 00 64 08 75 38 00 00 00 00 f2 7e 45 38
       0.0 5.8420366e-05 0.0 4.7086687e-05
0003e0 29 23 ee 35 59 07 4e 38 ae 80 72 38 0e bb 9b 35
       1.7742615e-06 4.912107e-05 5.781714e-05 1.160284e-06
0003f0 cd 2a de 38 8f c2 73 38 a8 b1 11 32 f9 8e cd 38
       0.00010593757 5.811691e-05 8.480505e-09 9.8017925e-05

exp_avg f4 [256]
000000 1d 30 06 36 43 cb 1a bd 83 02 a4 bc 4b c0 12 3c
       1.9995562e-06 -0.0377915 -0.020020729 0.008956979
000010 ac 45 d4 bc 00 00 00 00 b4 4d 3a 3c 1a 9d 1c bd
       -0.025912128 0.0 0.011371065 -0.03823576
000020 d5 4f 9d bc 80 e4 0d bc fb 69 ba bc a8 f8 ef b9
       -0.019203106 -0.008660436 -0.022755614 -0.00045770896
000030 cc 08 e5 bc 19 56 f2 bb 28 f3 3d b8 00 00 00 00
       -0.027958296 -0.0073955175 -4.528757e-05 0.0
000040 a7 41 c2 39 4b d6 99 b9 b4 b9 a0 bc 19 84 c5 bb
       0.00037051478 -0.00029342095 -0.0196198 -0.00602771
000050 f9 1c 6f bb 6a 40 d5 b9 e3 af b8 39 15 8b 8e 3c
       -0.0036485775 -0.00040674518 0.0003522626 0.017400304
000060 00 00 00 00 60 8e 2f 37 f4 3e be 37 5f 80 dd 38
       0.0 1.0463962e-05 2.267908e-05 0.00010562012
000070 aa 7c 83 bc 22 3b 83 bc b5 e0 d0 bb ad 77 8b bc
       -0.016050655 -0.016019408 -0.0063744434 -0.01702484
000080 f5 2f fc 39 38 60 6c bb c9 0c ae bc e2 91 13 3c
       0.00048100916 -0.0036068093 -0.02124633 0.009006949
000090 46 91 02 bc c2 10 28 bc 13 44 7c bb d2 1d 1e bc
       -0.007969206 -0.010257902 -0.0038492724 -0.009650664
0000a0 00 00 00 00 1b d9 23 b8 62 24 75 bc 1c e4 72 3b
       0.0 -3.9064424e-05 -0.014962288 0.0037062233
0000b0 24 a5 b9 bc 54 fb b3 bb fb 21 b3 bb c9 1c 71 bd
       -0.022661753 -0.005492607 -0.0054666973 -0.058865342
0000c0 2c 60 92 bc b4 c1 66 bc 38 ef 83 b9 28 51 19 bc
       -0.017868124 -0.014084268 -0.000251645 -0.009357728
0000d0 67 36 90 3b 45 2a 20 3b 6a 94 60 b9 dd fd ae b9
       0.0044010165 0.0024439257 -0.00021417593 -0.0003337701
0000e0 50 a2 d7 bb a3 80 6d bb b8 83 d9 bc 18 ea c5 bb
       -0.0065806285 -0.0036240004 -0.026552066 -0.006039869
0000f0 4b 4c a8 bc 18 de 8f 3a 43 3a 26 bc 52 98 e0 3a
       -0.020544192 0.0010976223 -0.010145727 0.0017135239
000100 af fe ef 3b e7 03 b7 ba 30 43 ac 3a 00 00 00 00
       0.007324062 -0.0013962955 0.0013142582 0.0
000110 e3 62 9d 3b e1 94 92 36 1a d4 1d 00 40 f8 3a bb
       0.004803048 4.368471e-06 2.739317e-39 -0.0028529316
000120 60 21 17 3b 7e e4 6d 38 95 57 26 bb 68 25 b3 3b
       0.0023060665 5.6718003e-05 -0.0025381793 0.0054671057
000130 c4 bb 75 bb 89 8b 2a bd f5 d6 ed 38 f9 b8 74 bd
       -0.003749595 -0.041636977 0.000113410795 -0.059746716
000140 fb bd 2d bc ca fe 09 3b a2 9a f0 bc 4f 70 78 3b
       -0.010604377 0.0021056407 -0.02937061 0.0037908738
000150 c9 f0 13 bd 71 5b e6 bc f5 51 25 bd b3 8a 3a 3c
       -0.036118302 -0.028119775 -0.040361363 0.0113856075
000160 e5 6b a6 bc 0a d5 52 bd 00 00 00 00 ad 64 30 bd
       -0.02031512 -0.0514727 0.0 -0.043064762
000170 9f d7 ea ba 40 76 8c ba 7c 44 25 b8 37 8c ac bb
       -0.0017917043 -0.0010716394 -3.9402847e-05 -0.0052657383
000180 e8 b3 9c bc 4e 0b b6 39 d0 75 d1 bc d0 c0 80 3c
       -0.019128755 0.00034722168 -0.025568873 0.01571694
000190 c7 5f a4 bc 6d 83 53 bd ce 92 8b b9 31 09 9d bc
       -0.020065201 -0.05163901 -0.00026621524 -0.019169422
0001a0 f5 15 27 bd 1f fb 1d 3a 59 23 23 3a aa cf 5c bc
       -0.040792424 0.00060264947 0.0006223224 -0.013477245
0001b0 87 ff ee bc 1c b1 c1 bc 35 e9 95 bb bc 08 de ba
       -0.02917458 -0.023644023 -0.0045749196 -0.0016939859
0001c0 b2 45 4f bc fa 5b be 3a bc 7b 85 bc 12 f4 f6 b7
       -0.012650894 0.0014523261 -0.016294353 -2.943914e-05
0001d0 b8 85 66 bc 65 19 9f bc a0 8c 81 bc be 62 7b bb
       -0.014069967 -0.019421289 -0.015814126 -0.0038358415
0001e0 47 03 ff 39 74 aa 85 3a ed 82 3b 3b ac 8d 96 bb
       0.00048639832 0.0010197894 0.0028611973 -0.0045945253
0001f0 e1 3b 00 bd 2b cf 8b 3b dc 7a 79 3a 00 00 00 00
       -0.031307105 0.0042666397 0.00095169037 0.0
000200 9c 7d 58 3b 02 0b 14 bd b4 77 68 3b 66 31 17 3c
       0.0033033853 -0.03614331 0.003547174 0.009228086
000210 c4 ed b0 3b fe d5 92 3b a6 39 c4 bb d4 e2 e3 3b
       0.0053994376 0.0044810763 -0.0059883175 0.0069545303
000220 60 4c a3 39 89 52 28 3b 68 4f 54 bc 21 05 8e bc
       0.00031146687 0.002568396 -0.012958385 -0.01733643
000230 84 49 65 3c 24 61 75 3c 10 f9 07 bd 4b cb 4c 3c
       0.013994578 0.014976773 -0.03319651 0.012499641
000240 2f 13 4d 29 9b 23 0d bc f1 84 6e 3c 07 78 9a bc
       4.5535783e-14 -0.008614446 0.014558063 -0.018856062
000250 37 12 a1 38 86 f6 3d 3a 2d d2 86 3a b2 1d a5 bc
       7.680471e-05 0.00072465127 0.0010286026 -0.020155761
000260 97 00 5d ba 1d 66 5c b9 16 4f f4 03 0e fd 9e bb
       -0.0008430569 -0.00021018875 1.4359188e-36 -0.004851944
000270 97 e8 05 bd 90 10 8f bc 4c 3c 20 3c e9 bf d0 bb
       -0.032692518 -0.017463952 0.009780001 -0.0063705337
000280 57 18 2e bd cb 37 41 3c 87 b4 99 bd 14 9f 87 3b
       -0.04250368 0.011793087 -0.07505136 0.0041388366
000290 4e 61 9c b9 00 ef c9 b5 8c ea 01 3c 3e 00 10 3c
       -0.00029827136 -1.5045225e-06 0.0079294555 0.00878912
0002a0 8f db c7 bc e3 05 80 3b 8e c2 a9 3a d5 e7 34 bc
       -0.024396686 0.0039069518 0.0012951659 -0.011041601
0002b0 6c 60 24 bc ac 49 4a 39 b5 29 cf ba 00 00 00 00
       -0.010032754 0.00019291666 -0.0015805276 0.0
0002c0 19 54 35 bc 25 3c 10 3c 00 00 00 00 c3 7d 07 3c
       -0.011067414 0.008803402 0.0 0.00826973
0002d0 34 57 fe bb 84 19 65 3c 37 a6 a8 bc 18 d0 20 bd
       -0.0077618603 0.013983134 -0.02058707 -0.039260954
0002e0 d0 26 aa 3a 7e 4a 48 3c 7a df 05 3c a9 b9 30 bc
       0.0012981538 0.012224792 0.008170957 -0.010786452
0002f0 77 73 81 3c 7a 7d 70 b6 31 93 c2 bc e7 e4 0b 3c
       0.015802128 -3.5835824e-06 -0.023751827 0.008538461
000300 46 ae b6 3c f2 64 26 bb 00 00 00 00 06 1d 8c 3c
       0.022299897 -0.0025389758 0.0 0.017103683
000310 ca 04 99 39 e1 91 9b bb 54 97 83 38 9e 8a 43 3c
       0.00029186002 -0.0047476147 6.274754e-05 0.011934904
000320 0d 31 8a 3c 36 86 d6 bc 0a 68 9a b8 d6 6d f2 bc
       0.016869092 -0.026187044 -7.362671e-05 -0.02959339
000330 7e af 5c bc f7 77 f3 bc 00 00 00 00 76 e7 03 00
       -0.013469575 -0.02972029 0.0 3.58539e-40
000340 21 bf 4c 39 fa 4e ac 39 6f b8 e3 bb 9b b5 9c bb
       0.00019526157 0.0003286524 -0.0069494764 -0.0047823912
000350 21 58 db b8 00 00 00 00 d0 62 1d 39 b5 56 62 b7
       -0.00010459149 0.0 0.00015009497 -1.3490838e-05
000360 98 6e a9 3b ce f0 07 3b 52 d5 1b 3a a5 fa a0 3b
       0.0051706545 0.0020742896 0.0005944568 0.0049126917
000370 8d 8e e0 b8 60 34 f7 bb b4 ee cc 3c 1d f6 04 3c
       -0.000107077045 -0.0075440854 0.025016166 0.008115319
000380 88 22 bf bc 62 f2 b8 bc 5b da 8c bc 6f ad 9d 3a
       -0.023331895 -0.022576515 -0.017193964 0.0012029837
000390 05 4f 06 bd 60 0b 2b 39 74 f7 89 35 33 a5 1b bd
       -0.032790203 0.00016312068 1.0279314e-06 -0.037999343
0003a0 aa 64 99 bc c3 af d8 b6 3c 6d 91 bb 02 86 08 ba
       -0.018724758 -6.457763e-06 -0.0044380706 -0.0005207957
0003b0 9d c3 a5 3b e9 f7 60 3c 50 4a 2f 37 79 34 91 bd
       0.0050587193 0.013730981 1.0448115e-05 -0.070900865
0003c0 00 00 00 00 33 0b c1 bb 9c 2b a8 38 8c d0 b5 bb
       0.0 -0.0058912276 8.018987e-05 -0.0055485424
0003d0 36 02 b2 ba db 7b fa 3b 4f be da 3b 4e ec 32 36
       -0.0013580981 0.0076441593 0.0066755186 2.6661614e-06
0003e0 e7 6f ba bb f9 ac 62 ba d7 72 92 ba cf d3 63 3b
       -0.0056896093 -0.0008646991 -0.0011173141 0.00347637
0003f0 f2 93 6f bc f8 fc 1a bb 5e 5a a2 bc 03 ec b1 3a
       -0.014622675 -0.0023649316 -0.019818481 0.0013574365

exp_avg_sq f4 [256]
000000 7e 5b b6 33 c9 22 3f 3a 82 44 92 3a 9f a3 bf 37
       8.491678e-08 0.0007291255 0.0011159333 2.2845166e-05
000010 ec 4a d3 39 00 00 00 00 d9 6b b1 38 c3 60 40 3a
       0.00040300877 0.0 8.460106e-05 0.00073386374
000020 be 06 26 39 04 e7 41 3a 26 8c f4 38 e9 e3 a7 39
       0.00015833505 0.000739679 0.00011660931 0.00032022528
000030 22 55 a7 39 79 0f 63 3a 73 db 16 3a 00 00 00 00
       0.0003191615 0.00086616684 0.00057547464 0.0
000040 3b be 0b 38 25 d4 77 36 9f 69 e9 39 24 42 65 39
       3.331735e-05 3.6929353e-06 0.00044519917 0.00021863781
000050 58 d7 fd 38 a6 98 13 39 c9 c3 e0 38 96 98 25 39
       0.00012104091 0.00014075878 0.0001071762 0.00015792469
000060 00 00 00 00 f0 ba 56 37 80 19 25 35 c7 5f 7e 39
       0.0 1.2798919e-05 6.15044e-07 0.00024259007
000070 af 7f aa 39 8a 37 67 3a bc 4b f4 38 81 95 b0 39
       0.00032520058 0.00088202266 0.00011648933 0.00033680725
000080 2d 45 22 39 3d a2 98 38 02 18 a5 39 f9 bb 9a 39
       0.00015475294 7.278144e-05 0.0003148914 0.0002951322
000090 ae aa 36 3a da 00 3a 39 9e 03 7a 39 57 af 72 3a
       0.0006968182 0.0001773866 0.00023843205 0.0009257695
0000a0 00 00 00 00 22 4b b9 36 d7 be 02 3a d3 32 4f 39
       0.0 5.5221763e-06 0.0004987544 0.00019759992
0000b0 66 45 88 39 33 f7 c8 39 c2 06 88 3a b2 32 98 3a
       0.00025991647 0.0003833115 0.001037799 0.0011611788
0000c0 29 c3 05 3a bc 8c 5b 39 8b ca 3f 37 11 d4 53 3a
       0.00051026285 0.00020937895 1.1431645e-05 0.00080806116
0000d0 6b 47 08 3a 21 03 ff 38 4b 9b 6e 39 0d f0 48 38
       0.00051986304 0.0001215993 0.000227553 4.790728e-05
0000e0 1a 9e 58 3a bb 9e 87 3a 90 fa 14 39 9b d1 23 3a
       0.0008263305 0.0010346988 0.00014207722 0.000624919
0000f0 39 7b 2e 3a 42 ce ae 39 97 61 16 39 07 73 0d 38
       0.0006655935 0.0003334154 0.0001434147 3.3724147e-05
000100 12 a8 fc 37 28 5b 6f 38 18 4b 10 39 00 00 00 00
       3.0119005e-05 5.7066936e-05 0.00013760885 0.0
000110 24 a2 95 38 46 d4 c4 35 56 db 3a 38 f5 65 29 39
       7.135075e-05 1.4664918e-06 4.455013e-05 0.00016155078
000120 59 8d 96 36 da 41 a2 34 32 53 a2 3a b3 51 02 39
       4.4868034e-06 3.0222765e-07 0.0012384413 0.00012428201
000130 60 ee 86 39 12 18 c5 39 1f 5a 86 38 94 f2 25 3a
       0.00025736075 0.00037592702 6.406404e-05 0.00063303974
000140 83 2a 0b 3a 25 bd 14 38 29 9d 5c 3a bd a9 96 38
       0.0005308764 3.5462104e-05 0.00084157527 7.1841736e-05
000150 aa 82 93 39 63 e4 9a 39 ce f1 bc 39 32 15 df 39
       0.00028135377 0.0002954333 0.00036038313 0.00042549666
000160 1f c1 07 39 41 52 88 3a 00 00 00 00 71 be 54 3a
       0.00012946546 0.001040049 0.0 0.0008115536
000170 4f 56 05 39 88 80 92 38 f8 41 1f 37 72 da 08 39
       0.00012716021 6.985763e-05 9.492498e-06 0.00013051348
000180 2f 64 b1 39 23 50 8b 39 9e 9f 19 3a 5d a2 e5 39
       0.00033834713 0.00026571853 0.00058602716 0.00043799254
000190 d0 f9 2e 38 57 4b 06 3a e5 64 63 38 9a f8 93 39
       4.171749e-05 0.0005122921 5.4214983e-05 0.00028223248
0001a0 e7 bf da 39 73 ec ee 38 7d e6 e5 34 71 23 25 3a
       0.0004172318 0.000113927665 4.2822276e-07 0.00062995317
0001b0 7d f6 89 39 c7 a7 ee 39 63 27 63 3a ca 1a 8c 39
       0.00026314324 0.000455199 0.0008665232 0.0002672284
0001c0 f1 90 35 3a 75 0e a3 36 6b 0c 10 39 cf a8 9b 38
       0.00069262 4.8594616e-06 0.00013737536 7.422419e-05
0001d0 8f 7c 89 39 3c 15 69 3a 46 22 20 39 1b a8 9e 37
       0.0002622348 0.0008891409 0.00015271557 1.8913348e-05
0001e0 f5 8a 90 37 12 a6 43 3a 0a 9f f2 38 66 d2 f3 38
       1.7230845e-05 0.0007463406 0.000115690826 0.00011626333
0001f0 42 ce c2 39 d8 63 5f 38 52 3f 5e 36 00 00 00 00
       0.00037156238 5.326033e-05 3.3117435e-06 0.0
000200 20 5d a1 39 ca 0f 08 3a eb 10 05 3a 1a c9 59 38
       0.00030777697 0.0005190341 0.00050760683 5.1924122e-05
000210 49 3b 30 39 65 59 74 38 4b 79 a5 37 27 35 3e 3a
       0.00016806753 5.825739e-05 1.9726014e-05 0.0007255845
000220 fe 4b 74 38 5e 94 4f 39 e5 f4 46 39 c5 04 03 3a
       5.8244907e-05 0.0001979633 0.00018973982 0.0004997964
000230 9b 9f 04 39 5d 56 8d 39 42 32 91 3a 2e 18 4d 38
       0.00012647959 0.0002695796 0.00110776 4.8898328e-05
000240 50 ef 30 33 19 c7 37 38 19 97 c0 39 f0 be 27 39
       4.1195847e-08 4.3816024e-05 0.0003673367 0.00015997491
000250 ca fe 8a 38 84 20 1a 35 a9 db a5 39 c5 f0 7f 3a
       6.627811e-05 5.7416787e-07 0.00031634912 0.00097633555
000260 45 6d 1c 3a 12 02 66 33 26 dd 40 31 ad 93 27 3a
       0.000596721 5.355293e-08 2.8065386e-09 0.000639255
000270 0d ac a1 39 ab 50 e7 38 1d b6 b1 37 c6 f5 88 38
       0.000308365 0.00011029964 2.1184847e-05 6.530764e-05
000280 27 e5 55 3a 7f 31 de 38 4f af 8d 3a 23 f6 34 37
       0.00081594515 0.00010595004 0.0010809692 1.0786144e-05
000290 6a bc 02 39 51 ba c6 33 a4 7e 1d 37 20 d2 67 3a
       0.00012467956 9.253984e-08 9.387415e-06 0.0008843262
0002a0 91 1f 7b 3a 1f 57 0c 37 6a 4c 72 38 ba d2 f4 38
       0.0009579594 8.364935e-06 5.7768462e-05 0.000116740775
0002b0 ac 93 fc 39 4e 22 09 3a b8 d4 4a 39 00 00 00 00
       0.0004817521 0.0005231247 0.00019343465 0.0
0002c0 6b 53 96 3a 0e ee 77 3a 00 00 00 00 0a b4 15 38
       0.0011468952 0.0009457775 0.0 3.5692043e-05
0002d0 d2 3f 88 39 81 e4 4c 39 2e 4c 1d 3a 0e 31 12 3a
       0.0002598749 0.0001954008 0.00060004264 0.0005576768
0002e0 56 a8 50 39 86 37 e9 38 b7 c6 09 3a b1 3f a2 38
       0.00019899136 0.00011120648 0.0005255746 7.7366254e-05
0002f0 c8 32 a7 39 a5 e1 9a 35 b6 65 eb 39 d2 50 8c 3a
       0.00031890557 1.1539565e-06 0.00044898473 0.0010705239
000300 7b 3d 8b 39 bf 73 80 39 00 00 00 00 9f cb 78 38
       0.00026557953 0.000245003 0.0 5.9317445e-05
000310 70 d4 3f 3a 9f 0a 70 39 4b 7d 1c 39 41 2c 52 3a
       0.00073177274 0.0002289214 0.00014923995 0.00080174586
000320 ff 2d b3 39 eb 60 67 39 f1 08 bf 38 d9 f1 a0 3a
       0.0003417581 0.00022065981 9.109255e-05 0.0012279107
000330 73 77 d4 3a 50 b7 bd 39 00 00 00 00 c5 52 98 30
       0.0016209915 0.00036185468 0.0 1.108298e-09
000340 aa 08 9b 38 42 9a 4f 37 db 50 eb 38 c6 7c 46 3a
       7.39259e-05 1.2374077e-05 0.00011220734 0.0007571693
000350 b1 49 98 36 00 00 00 00 d0 6f 21 3a 54 5d 91 35
       4.538532e-06 0.0 0.0006158324 1.0830504e-06
000360 ee a3 97 3a 9b 32 6e 38 e9 f5 b7 35 0f a0 2e 39
       0.0011569241 5.6790752e-05 1.3706132e-06 0.0001665356
000370 5a 7e d3 37 b7 93 f7 38 4f 35 55 3a 09 c1 49 39
       2.5211997e-05 0.00011805392 0.0008133249 0.00019240765
000380 e0 4e 00 3a 01 72 64 3a 2c 8f d9 39 ba 88 16 39
       0.0004894566 0.00087144977 0.00041496137 0.0001435605
000390 02 b7 66 3a 8d c1 91 3a 26 b5 38 38 21 24 11 3a
       0.0008801074 0.0011120305 4.4037726e-05 0.00055366947
0003a0 98 aa 34 38 86 b3 08 33 02 c0 8e 37 ab 3a 90 38
       4.3074222e-05 3.1828243e-08 1.701713e-05 6.877383e-05
0003b0 50 8a 9a 39 03 68 74 38 34 2d 86 37 6a b6 5f 3a
       0.0002947622 5.8271e-05 1.5995094e-05 0.0008533957
0003c0 00 00 00 00 64 e3 a9 37 20 91 03 36 37 87 de 37
       0.0 2.0252257e-05 1.9604995e-06 2.6527427e-05
0003d0 96 fc cb 38 c6 51 86 38 be 29 44 39 5e 88 95 32
       9.726842e-05 6.4048494e-05 0.00018707567 1.7407896e-08
0003e0 d3 48 7f 39 26 9d 63 38 24 b4 87 38 22 96 67 39
       0.00024345824 5.4267373e-05 6.4708554e-05 0.00022085806
0003f0 f4 e8 c1 37 40 25 70 38 07 17 d1 39 b2 13 fb 39
       2.311587e-05 5.725515e-05 0.00039880743 0.00047889125
