model/model.pth (torch, 49601 bytes, 12 tensors)

linear1.weight f4 [256, 11]
0	0x3daab2e3	0.08334901
1	0xbcbf610a	-0.023361702
2	0xbf0c73ed	-0.5486439
3	0xbf44ef25	-0.76927406
4	0x3ef65061	0.481082
5	0xbf23fa48	-0.64053774
6	0x3d1c6584	0.03818275
7	0xbf51f6e2	-0.8201734
8	0x3ec06dbe	0.37583727
9	0xbeb93a13	-0.3617712
10	0xbf539f5e	-0.8266505
11	0xbedb59de	-0.42842
12	0xbeaaf0d9	-0.33386877
13	0x3f88245f	1.06361
14	0xbe3f4693	-0.18679266
15	0xbeac75a1	-0.33683494
16	0xbe69987f	-0.22812079
17	0xbe9cff4f	-0.30663535
18	0x3db76b56	0.089560196
19	0xbda480d8	-0.080323875
20	0xbeba2ea3	-0.36363706
21	0xbe843165	-0.25818935
22	0xbefb1551	-0.490397
23	0xbef6c45f	-0.48196694
24	0x3f15435f	0.58305925
25	0xbecaf387	-0.39638922
26	0xbda1ddb6	-0.07903616
27	0x3e621a8f	0.22080444
28	0xbeaedfb1	-0.34155038
29	0xbe88c086	-0.26709384
30	0xbeed0541	-0.4629307
31	0xbd83ec19	-0.064415164
32	0xbe9645d8	-0.29350162
33	0xbe8707db	-0.2637318
34	0x3f867ca0	1.0506783
35	0xbf04bf89	-0.5185476
36	0x3e20711a	0.15668145
37	0xbedcdf4e	-0.43139118
38	0xbef981a6	-0.48731726
39	0xbada693d	-0.0016663444
40	0xbe688ff0	-0.22711158
41	0x3e5349ab	0.20633571
42	0xbecbebf1	-0.39828447
43	0xbe196f29	-0.1498381
44	0xbdf13575	-0.11777774
45	0xbefb24b8	-0.49051452
46	0xbeeb48b8	-0.45953918
47	0x3ead03c1	0.33791927
48	0xbf714421	-0.9424458
49	0x3f33a311	0.70170695
50	0x3f034e5a	0.5129143
51	0x3c813131	0.015770527
52	0xbf7ec27d	-0.99515516
53	0xbe4eff87	-0.20214663
54	0xbeefd71e	-0.4684381
55	0x3c9855fb	0.018595686
56	0x3d85fe99	0.06542701
57	0xbe1356dd	-0.14388604
58	0x3e0ce530	0.13759303
59	0x3e138dd5	0.14409573
60	0xbe9a2321	-0.30104926
61	0xbe2db085	-0.16961868
62	0xbe54a4d6	-0.20766005
63	0xbe0a9d8a	-0.13536659
64	0xbe90ed23	-0.2830592
65	0xbdd1e7a0	-0.10249257
66	0x3f4065ad	0.75155145
67	0x3d1957ca	0.037437238
68	0xbeae06d5	-0.33989587
69	0x3e6e7458	0.23286569
70	0xbe972e61	-0.29527572
71	0xbe0ed5c6	-0.13948736
72	0xbd0f4388	-0.034976512
73	0xbee11d2b	-0.43967566
74	0x3df57368	0.119849026
75	0xbe30a99e	-0.17252204
76	0xbe8b512a	-0.2721036
77	0x3e0a87fc	0.13528436
78	0x3eacbea5	0.337392
79	0x3dd6b055	0.104828514
80	0xbef1ad4a	-0.47202522
81	0x3da8af84	0.08236602
82	0x3ead93ba	0.3390177
83	0xbea853f4	-0.3287655
84	0xbe6f06d3	-0.23342447
85	0xbf5aacb5	-0.8541978
86	0x3e29331f	0.16523407
87	0xbed44269	-0.41456917
88	0xbedff9b9	-0.4374521
89	0x3e5bb021	0.21453907
90	0x3e5c0a9a	0.21488419
91	0xbf1aeb9f	-0.6051578
92	0x3e7facf4	0.2496832
93	0x3d3d5b6c	0.046229765
94	0xbe9ba353	-0.30398044
95	0xbefc6256	-0.49293774
96	0xbf0c4948	-0.5479932
97	0xbf04d4ab	-0.51887006
98	0x3e40d069	0.18829502
99	0xbe53b193	-0.20673208
100	0x3f7d1732	0.9886352
101	0xbe083c00	-0.13304138
102	0x3e91c77f	0.28472516
103	0xbe12dbdb	-0.1434168
104	0xbea46887	-0.32110998
105	0x3de58805	0.11207584
106	0xbd9d2bd5	-0.07674376
107	0xbe9157ff	-0.28387448
108	0xbe4473e1	-0.1918483
109	0x3e87b780	0.26507187
110	0x3ede321d	0.43397608
111	0x3dd10428	0.10205871
112	0xbec88c04	-0.39169323
113	0x3d821f2f	0.06353604
114	0x3da98f12	0.082792416
115	0xbe051d2c	-0.1299941
116	0x3ed6f3b0	0.41982794
117	0xbecc0f08	-0.39855218
118	0x3ce479a6	0.027890038
119	0x3e2bef4c	0.16790503
120	0xbe0fe035	-0.14050372
121	0x3e06d79f	0.1316819
122	0x3f18a290	0.5962305
123	0xbe289a6c	-0.16465157
124	0xbe74bf20	-0.23901033
125	0xbec006a5	-0.3750507
126	0x3c29569d	0.010335592
127	0xbe8c7004	-0.2742921
128	0xbe55dd13	-0.20885114
129	0xbd3f8ace	-0.046763234
130	0xbecf51ec	-0.4049219
131	0xbeb3cc5b	-0.35116848
132	0xbd090ffb	-0.033462506
133	0xbec930ee	-0.39295143
134	0x3f66fa47	0.9022564
135	0x3e1c4e37	0.15264212
136	0xbe80d792	-0.25164467
137	0xbc8484c2	-0.016176585
138	0xbebfbbb2	-0.37447888
139	0xbe7533fe	-0.23945615
140	0x3de579e0	0.112048864
141	0xbd9627a8	-0.073317826
142	0xbe911323	-0.28334913
143	0xbe8af8b3	-0.27142867
144	0xbe327134	-0.17425996
145	0xbe999a6e	-0.30000633
146	0x3d75786e	0.059929304
147	0x3dd9d9ac	0.10637221
148	0x3e29681e	0.16543624
149	0xbe546fe0	-0.20745802
150	0x3d15804f	0.036499318
151	0xbcc9709a	-0.024589825
152	0xbdfd0766	-0.12354927
153	0x3d0f6624	0.03500952
154	0x3eb902a4	0.36134827
155	0xbf1c8efa	-0.61155665
156	0x3f92e21f	1.1475257
157	0xbee909d8	-0.45515323
158	0xbdacf08f	-0.084443204
159	0xbec0d86c	-0.37665117
160	0x3da9dc46	0.08293967
161	0x3eb0719f	0.34461686
162	0x3d559974	0.052148297
163	0x3ee4f2da	0.4471653
164	0xbe6716fd	-0.22567363
165	0xbf13eaf2	-0.57780373
166	0xbec7d92f	-0.39032885
167	0x3f32b403	0.69805926
168	0xbeb5fa9c	-0.35542762
169	0xbf166a01	-0.587555
170	0xbf34e72a	-0.7066523
171	0xbe90ed98	-0.2830627
172	0xbe1ed025	-0.15509088
173	0xbea52ea7	-0.32262155
174	0xbe83d37c	-0.25747287
175	0xbf12bd6a	-0.5732027
176	0x3d6057ea	0.05477134
177	0x3eeafbf4	0.4589535
178	0xbeb61425	-0.35562244
179	0xbe663ebf	-0.22484873
180	0xbd6513cd	-0.055927087
181	0xbcd1b57e	-0.025599238
182	0xbe6c2df8	-0.2306441
183	0xbb8cd4fe	-0.0042978516
184	0xbda27833	-0.079330824
185	0xbc6356ab	-0.013875644
186	0xbe74a2f3	-0.23890285
187	0xbef24cea	-0.47324306
188	0x3e02a23c	0.127572
189	0xbba4f33d	-0.005033879
190	0x3eed8a42	0.46394545
191	0xbe1644a4	-0.14674622
192	0x3d2571d0	0.040391743
193	0xbd436c8f	-0.04771095
194	0xbe226c85	-0.1586171
195	0x3e92ccce	0.2867188
196	0xbf28c331	-0.6592284
197	0xbf2354d6	-0.63801324
198	0xbf0e4c6e	-0.5558537
199	0x3e3a4d9a	0.18193665
200	0x3e03339c	0.12812656
201	0x3e95bd75	0.29246107
202	0xbe636e3f	-0.22210024
203	0xbed1ee5b	-0.41002163
204	0xbd9b32d5	-0.07578055
205	0xbf23933e	-0.6389655
206	0xbe91fe10	-0.28514147
207	0x3df39170	0.118929744
208	0xbea5223d	-0.32252684
209	0xbe24cfe3	-0.16094927
210	0x3f8e276c	1.1105781
211	0xbde5a0cc	-0.1121231
212	0xbceacc6e	-0.028661933
213	0x3e3da346	0.18519315
214	0x3e2e9e30	0.17052531
215	0x3e67e8bd	0.22647376
216	0xbead54de	-0.3385381
217	0xbe728cf3	-0.2368658
218	0x3dff1c97	0.12456625
219	0xbd029e19	-0.031889055
220	0x3eb0c0f8	0.34522223
221	0x3f22e3ff	0.63629144
222	0xbf5603df	-0.83599657
223	0xbe8689b2	-0.26276928
224	0xbdb59ca8	-0.088677704
225	0xbde10e5f	-0.10989069
226	0x3a206a25	0.00061193324
227	0x3ecaea30	0.39631796
228	0xbd00eccd	-0.03147583
229	0x3e4edefb	0.20202248
230	0x3e763c30	0.24046397
231	0xbc66e00b	-0.014091502
232	0xbdf62292	-0.120183125
233	0x3eaded56	0.33970135
234	0xb8bb8ed1	-8.9434565e-05
235	0x3d93e688	0.07221705
236	0xbe3eccc5	-0.18632801
237	0xbdd28754	-0.10279718
238	0xbd7d8abd	-0.06189989
239	0xbeef6eb7	-0.46764156
240	0xbd95e56e	-0.07319151
241	0xbe87a8b8	-0.2649591
242	0xbd929ad4	-0.07158437
243	0x3f646fc8	0.89233065
244	0xbe50efba	-0.20403948
245	0x3ef760c3	0.4831601
246	0xbe0e9c0b	-0.13926713
247	0x3eeafb8b	0.45895037
248	0xbf4296d5	-0.760114
249	0xbe894d26	-0.26816672
250	0xbedc8267	-0.4306824
251	0xbe98496f	-0.29743525
252	0x3ea37841	0.31927684
253	0xbccf1a60	-0.025281131
254	0x3e4cfe50	0.20018888
255	0x3c66e03c	0.014091548

linear1.bias f4 [256]
0	0x3e8d2616	0.2756812
1	0xbecc5b33	-0.3991333
2	0xbe821ecc	-0.2541412
3	0xbc7c6128	-0.015404023
4	0x3f56f27e	0.83963764
5	0xbe916c23	-0.28402814
6	0x3e2e1e95	0.17003854
7	0xbc0808db	-0.008302893
8	0xbe572059	-0.21008433
9	0xbe14d321	-0.14533664
10	0xbee86921	-0.45392707
11	0xbea9db63	-0.3317519
12	0x3d00ee61	0.031477336
13	0xbe84356f	-0.25822017
14	0xbe9997ef	-0.2999873
15	0xbe569d91	-0.20958544
16	0xbeff4a1d	-0.4986123
17	0xbea213e6	-0.31655806
18	0xbe8796d7	-0.2648227
19	0xbdbe6eed	-0.09298501
20	0xbeaca71a	-0.33721238
21	0xbebae35b	-0.36501583
22	0xbe59a0ba	-0.21252719
23	0xbd8ed860	-0.06974864
24	0xbee09b3a	-0.43868428
25	0x3e8b7b20	0.27242374
26	0x3cfe704b	0.031059405
27	0xbe925d6a	-0.28586894
28	0x3ef7c037	0.48388836
29	0x3e9e8286	0.30958956
30	0xbec0297e	-0.37531656
31	0xbeb5089b	-0.35358128
32	0xbe9daf85	-0.30797973
33	0xbec17329	-0.37783173
34	0xbe58e417	-0.2118076
35	0x3a92c3b0	0.0011197235
36	0x3f15b0a3	0.5847265
37	0xbf271be6	-0.65276945
38	0xbd95c7d5	-0.073135056
39	0x3e352bc8	0.17692482
40	0xbd8f949c	-0.07010767
41	0xbcd333a2	-0.025781456
42	0xbeb4e3e3	-0.35330114
43	0x3dac2a7d	0.084065415
44	0xbe3a6f6c	-0.18206567
45	0xbe424f57	-0.18975578
46	0xbe0fa95b	-0.14029448
47	0xbf37bae2	-0.71769536
48	0xbd87457d	-0.06605051
49	0xbd97fdd7	-0.07421463
50	0xbe8a2f02	-0.2698899
51	0xbec92e24	-0.39293015
52	0xbec32819	-0.3811653
53	0xbd862acc	-0.065511316
54	0xbecc8ddd	-0.39951983
55	0xbf0f1128	-0.55885553
56	0x3dcabdb5	0.09899465
57	0x3e07edd7	0.13274322
58	0xbeb309e4	-0.34968483
59	0x3e3a651d	0.18202634
60	0x3eac337c	0.3363303
61	0xbe07626b	-0.13221137
62	0x3e2a5f9e	0.16638038
63	0xbd8d6800	-0.06904602
64	0xbdc5b54f	-0.096537225
65	0xbeef74a9	-0.46768692
66	0x3dae4662	0.08509518
67	0xbebdc1c5	-0.37061897
68	0xbecc54b2	-0.39908367
69	0x3ec0c696	0.3765151
70	0xbf06e3ee	-0.52691543
71	0xbe328a46	-0.1743556
72	0xbdefeb82	-0.117148414
73	0xbe03a321	-0.12855197
74	0xbe8f34ed	-0.27970067
75	0xbebc312d	-0.36756268
76	0x3ed2f20d	0.41200295
77	0xbe766086	-0.24060258
78	0xbcc08aca	-0.02350368
79	0xbeab1332	-0.33413082
80	0xbea6e468	-0.32596135
81	0x3e15fdd8	0.14647615
82	0xbf248496	-0.6426481
83	0x3e08f312	0.13373974
84	0xbe7c3a59	-0.24631633
85	0xbddc8e9c	-0.10769388
86	0xbdd95d82	-0.10613538
87	0xbf0b1abb	-0.5433766
88	0xbddadfd0	-0.1068722
89	0xbf109f40	-0.56492996
90	0xbd951c56	-0.07280795
91	0xbeab59af	-0.3346686
92	0xbf0647cc	-0.52453303
93	0xbebe0fe0	-0.37121487
94	0xbec62680	-0.38701248
95	0xbec2e1fd	-0.3806304
96	0xbed6aa76	-0.41926926
97	0xbdef3f49	-0.116819926
98	0xbe85f43f	-0.26162907
99	0x3d2b4c31	0.04182071
100	0x3d2880da	0.041138507
101	0xbed58c1c	-0.41708457
102	0xbec56219	-0.38551405
103	0xbe34cb99	-0.17655791
104	0x3eb6246b	0.3557466
105	0x3eb7bee6	0.3588783
106	0xbef10d1f	-0.47080323
107	0xbea655d8	-0.3248737
108	0xbf1f6b90	-0.622735
109	0xbe16dbd6	-0.14732298
110	0xbeb99368	-0.36245275
111	0xbe4f3d01	-0.20238115
112	0xbf1d8ce1	-0.6154309
113	0x3e0d7a57	0.138162
114	0x3e2ef245	0.17084606
115	0xbea05af3	-0.3131939
116	0xbe45815f	-0.19287632
117	0x3cdd6269	0.027024465
118	0x3fa0caac	1.256185
119	0xbf18d53a	-0.5970036
120	0xbeddbc06	-0.43307513
121	0xbd8a4b90	-0.06752694
122	0xbe82dd4a	-0.25559455
123	0xbd85d2bd	-0.06534336
124	0xbedcb4a5	-0.4310657
125	0xbe8141b9	-0.25245455
126	0xbe1db5f3	-0.1540144
127	0xbd5c35a6	-0.0537621
128	0xbdd13ee0	-0.102170706
129	0xbed91dc3	-0.4240552
130	0xbe4f6aa9	-0.20255531
131	0xbd787943	-0.06066252
132	0xbdd58419	-0.10425586
133	0x3d5a57f5	0.05330654
134	0xbe8bdb32	-0.2731567
135	0x3daa45de	0.08314107
136	0xbe11e12e	-0.14246055
137	0xbe9dc2d9	-0.3081272
138	0xbe8fdb01	-0.28096774
139	0xbe7f1c62	-0.24913171
140	0xbe43deca	-0.19127956
141	0xbc2667b9	-0.010156565
142	0xbe7e14f4	-0.2481268
143	0xbed8ff7a	-0.42382413
144	0x3d3373d4	0.043811634
145	0xbe6fc1c5	-0.23413761
146	0xbf12e8f9	-0.5738674
147	0xbe875eba	-0.26439458
148	0xbe6ae92f	-0.22940515
149	0x3d71fee4	0.059080973
150	0xbeab31d5	-0.33436456
151	0x3e311dfa	0.17296591
152	0xbe43260c	-0.19057482
153	0xbf3ccdf3	-0.73751754
154	0xbd659f06	-0.05605986
155	0xbedfeb07	-0.43734
156	0x3eaaf183	0.33387384
157	0x3e14c2fd	0.14527507
158	0xbed02028	-0.40649533
159	0xbec0ee19	-0.37681654
160	0xbf06c361	-0.52641875
161	0x39ae667a	0.00033264217
162	0x3d85c2ba	0.06531282
163	0xbe34adca	-0.1764442
164	0x3ec78961	0.38972
165	0xbda4ba16	-0.080433056
166	0x3e4a5121	0.1975751
167	0xbe2f31d1	-0.17108847
168	0xbd2815c8	-0.041036397
169	0xbe60b536	-0.21944126
170	0xbe2288c0	-0.15872478
171	0xbdc92292	-0.09821047
172	0xbe6b80af	-0.22998308
173	0x3ccbcd7f	0.024878262
174	0x3d8f6658	0.070019424
175	0xbd24a78c	-0.040198848
176	0xbe6ca325	-0.2310911
177	0xbc5ea2a0	-0.0135885775
178	0xbe1208b5	-0.14261134
179	0xbe9025c1	-0.28153804
180	0xbf196b5e	-0.59929454
181	0xbe9c5410	-0.30532885
182	0x3c9db70e	0.019252326
183	0xbe8fb779	-0.28069666
184	0xbe86493e	-0.26227754
185	0x3e00f479	0.12593259
186	0xbe90de05	-0.28294387
187	0x3d2dad43	0.042401563
188	0xbf29b6ed	-0.6629475
189	0x3ea75cd0	0.32687998
190	0x3de4ea24	0.11177471
191	0x3dd7954f	0.10526525
192	0xbf0b52f8	-0.54423475
193	0xbf0ec2ed	-0.55766183
194	0x3ee9b6d8	0.4564731
195	0xbe8a6aed	-0.27034703
196	0x3e96049c	0.29300392
197	0xbea54fbf	-0.32287404
198	0xbe4515be	-0.19246575
199	0xbe4ca3ff	-0.19984435
200	0xbc45dee5	-0.012077068
201	0xbe38baa3	-0.18039946
202	0xbe789e0f	-0.24279045
203	0xbe9e62f3	-0.30934867
204	0x3e85e9e1	0.26154998
205	0xbdbdc9f1	-0.09267033
206	0x3e989103	0.29798135
207	0xbda72517	-0.08161371
208	0xbe712a85	-0.23551376
209	0x3bce7d65	0.0063015693
210	0xbee41f1b	-0.44554982
211	0xbd96634e	-0.073431596
212	0x3cdfc6e9	0.027316527
213	0x3e2d5aa2	0.16929105
214	0x3e92c29a	0.28664094
215	0x3e91badc	0.28462875
216	0x3d66cccf	0.056347664
217	0x3ee36403	0.4441224
218	0x3aa59b02	0.0012634697
219	0xbe513238	-0.20429313
220	0xbe99c035	-0.30029455
221	0x3d2415c6	0.040059827
222	0xbda40c17	-0.080101185
223	0xbeceb681	-0.40373614
224	0x3e9c9042	0.3057881
225	0x3ea919d8	0.3302753
226	0xbf25c2ad	-0.64750177
227	0x3ebf9013	0.37414607
228	0xbe7316c7	-0.23739158
229	0xbeb38578	-0.35062766
230	0x3d00357f	0.031301018
231	0x3ec9bc99	0.394017
232	0xbedf4f20	-0.43615055
233	0xbec24739	-0.37944964
234	0xbdf4b4d0	-0.1194855
235	0xbea530d1	-0.32263806
236	0x3eabc45e	0.33548254
237	0xbecce35e	-0.40017217
238	0xbf296418	-0.66168356
239	0x3b732c66	0.003710532
240	0xbe538fbb	-0.20660298
241	0xbeb59776	-0.35467118
242	0xbb81c880	-0.003960669
243	0xbe49a759	-0.19692744
244	0xbf2e04b8	-0.6797595
245	0xbebd7d3f	-0.37009618
246	0xbe80b47a	-0.25137693
247	0x3e84b7f0	0.25921583
248	0xbeee38a8	-0.465276
249	0xbe9adc03	-0.3024598
250	0x3e264977	0.16238962
251	0xbd3e3763	-0.04643954
252	0x3d192b66	0.037394904
253	0xbdc156bc	-0.094403714
254	0x3f6539fc	0.895416
255	0x3dc8adcc	0.09798774

linear2.weight f4 [3, 256]
0	0x3eda58d3	0.42645893
1	0x3bbeccf7	0.0058227736
2	0xbdef05b0	-0.11671007
3	0x3d1bfaf5	0.03808113
4	0x3f23b382	0.6394578
5	0xbc6f259b	-0.014596368
6	0xbd9fbe55	-0.07799975
7	0x3e1b124f	0.15143703
8	0xbd1b6be6	-0.037944697
9	0x3db832e3	0.08994081
10	0x3f246829	0.64221436
11	0x3cf3644b	0.02971091
12	0x3c4886cc	0.012239169
13	0xbc2add22	-0.010428699
14	0xbd3c3887	-0.045952346
15	0x3caa9a93	0.02082566
16	0x3c8c98cc	0.017162703
17	0xbe6cf421	-0.23140003
18	0x3f1f691a	0.6226975
19	0x3d66016a	0.056153692
20	0xbddf21a7	-0.108950906
21	0xb8a5bf01	-7.90339e-05
22	0xbd242c6f	-0.040081438
23	0xbc2f0ac7	-0.010683722
24	0xbe2b0d57	-0.16704307
25	0x3f250aff	0.64469904
26	0xbeb62caf	-0.35580966
27	0xbd13c080	-0.036072254
28	0x3de71459	0.11283178
29	0x3f125588	0.5716176
30	0xbe5582ff	-0.20850752
31	0xbbcc8b60	-0.0062422007
32	0x3d0b0eb3	0.033949565
33	0x3dfde775	0.123976626
34	0x3cabb604	0.020960815
35	0x3ea9a7c9	0.33135822
36	0x3ec98ecb	0.39366755
37	0x3ea0e6de	0.31426138
38	0xbe934481	-0.28763202
39	0xbf1e6539	-0.61873204
40	0xbe285561	-0.1643882
41	0xbe864db1	-0.2623115
42	0x3ba68dbf	0.0050828154
43	0x3e42201f	0.18957566
44	0xbd657d48	-0.05602768
45	0xbf1c4fbf	-0.6105918
46	0xbd080e4c	-0.03321676
47	0xbaf69765	-0.001881343
48	0x3c2a274d	0.010385347
49	0xbf1fd388	-0.62432146
50	0x3a50f202	0.0007970632
51	0xbb2834aa	-0.0025666156
52	0xbb3fa7fa	-0.002924441
53	0xbe1c243f	-0.15248202
54	0x3e67f6f1	0.22652794
55	0xbe558367	-0.20850907
56	0xbed7b49f	-0.4212999
57	0x3eaeeda7	0.3416569
58	0xbe944db6	-0.2896554
59	0x3f10dfb7	0.5659136
60	0x3e325b34	0.17417604
61	0xbea6d6cd	-0.32585755
62	0x3df7d9b2	0.12102069
63	0xbf3344d9	-0.7002693
64	0xbee1113d	-0.43958464
65	0xbe1082fc	-0.14112467
66	0x3ee208e2	0.44147402
67	0x3ee44772	0.44585758
68	0x3f5cf2a3	0.86307734
69	0x3ec0bca8	0.37643933
70	0x3b311656	0.002702137
71	0xbe8c546f	-0.27408168
72	0x3d2d38db	0.04229055
73	0xbeadac93	-0.33920726
74	0x3bc7e291	0.006100007
75	0x3e4416ba	0.19149294
76	0x3ebed7a4	0.37273896
77	0x3c66dde3	0.014090988
78	0x3ce8221c	0.028336577
79	0xbe2619d7	-0.16220795
80	0xbd84a649	-0.06477029
81	0x3f0600e4	0.5234511
82	0x3ea86dc8	0.32896256
83	0x3e151fe2	0.14562944
84	0xbe995057	-0.29944107
85	0xbf23b9c7	-0.6395535
86	0xbe369c75	-0.17833121
87	0x3cbe7dc1	0.023253324
88	0x3d10ef89	0.03538469
89	0x3e979c58	0.29611468
90	0x3bc64ab3	0.0060513853
91	0xbdcaeb1d	-0.099081255
92	0xbda80f64	-0.082060605
93	0x3f1fab98	0.62371206
94	0x3f975505	1.1822821
95	0x3df39a62	0.118946806
96	0x3f59136c	0.8479526
97	0x3e93fc15	0.2890326
98	0xbf08afce	-0.53393257
99	0x3cb9d9a4	0.022686787
100	0xbd6f8ac5	-0.05848195
101	0x3e8fe5f8	0.2810514
102	0x3ea76540	0.32694435
103	0xbeb355db	-0.3502644
104	0x3e26f8cb	0.16305844
105	0x3ec08814	0.3760382
106	0xbdde3f50	-0.1085192
107	0x3d91602e	0.07098423
108	0xbbf81ddb	-0.0075719184
109	0xbebaf969	-0.3651841
110	0xbd898a11	-0.06715787
111	0xbeba059d	-0.36332408
112	0xbc4d4cb7	-0.012530497
113	0xbd93100b	-0.07180794
114	0x3df88865	0.1213539
115	0xbd0fc842	-0.03510309
116	0x3dd584f0	0.104257464
117	0xbc0571c9	-0.008144804
118	0x3f095d25	0.5365775
119	0xbe37cdc1	-0.17949583
120	0x3ee8b307	0.45449087
121	0xbebd912d	-0.37024823
122	0x3e2981ba	0.16553393
123	0x3db06b8f	0.08614265
124	0xbdd395a5	-0.10331277
125	0x3ec6e7a4	0.38848603
126	0xbe4c9162	-0.19977334
127	0xbee1338d	-0.43984643
128	0xbb9523d7	-0.0045513916
129	0x3e52a539	0.2057084
130	0x3e75edcf	0.24016498
131	0xbf40dcde	-0.75337017
132	0xbed26eb0	-0.41100073
133	0x3d82defa	0.06390186
134	0xbe62a3e8	-0.22132838
135	0x3f301a10	0.6878977
136	0x3e84071c	0.25786674
137	0x3c252ea0	0.010081917
138	0xbc85ba02	-0.016324047
139	0xbce7727c	-0.028252833
140	0xbe11a7f6	-0.14224228
141	0xbf1a90d6	-0.6037725
142	0xbcb7e6be	-0.022448894
143	0x3fb7a860	1.4348259
144	0x3d90435d	0.070440985
145	0x3c4e2198	0.012581252
146	0xbc6a555f	-0.014302581
147	0x3cefffb9	0.029296743
148	0x3db99637	0.09061854
149	0x3f4158d9	0.75526196
150	0xbce4e0a7	-0.027939154
151	0x3eeaac6c	0.45834672
152	0xbd12ce3b	-0.035841208
153	0x3d2221c5	0.039582986
154	0xbe9bd81c	-0.30438316
155	0xbbc1c643	-0.005913527
156	0x3f18ff1a	0.59764254
157	0xbcec01c4	-0.028809436
158	0x3fa467f5	1.2844225
159	0xbc177442	-0.009244027
160	0xbe937a19	-0.2880409
161	0x3f2fde7a	0.6869885
162	0x3f139e86	0.5766376
163	0xbcb9371d	-0.022609288
164	0x3e2bb473	0.16768055
165	0xbc5c37f9	-0.013441079
166	0xbc7f2492	-0.015572684
167	0xbd683f42	-0.056700952
168	0x3e48f54c	0.19624823
169	0x3d1d2639	0.03836653
170	0x3e084d67	0.13310777
171	0xbd9894a0	-0.07450223
172	0xbf03182e	-0.5120877
173	0x3e860302	0.2617417
174	0xbe8f55f8	-0.27995276
175	0x3c838e4d	0.016059065
176	0xbcc7f7de	-0.024410184
177	0x3e454f6f	0.19268583
178	0x3b69966e	0.0035642642
179	0xbca0906c	-0.019600116
180	0xbe08a667	-0.13344727
181	0xbc205b9c	-0.009787466
182	0x3e21b6ef	0.1579244
183	0xbc512488	-0.012765057
184	0x3cdf12dc	0.027230673
185	0xbdd6c3ff	-0.10486602
186	0xbe8447e5	-0.258361
187	0xbf067819	-0.52527004
188	0x3d13c9e7	0.03608122
189	0x3ed176f5	0.4091107
190	0xbefdaba2	-0.49545008
191	0x3e7cc247	0.24683486
192	0xbdce1892	-0.1006328
193	0x3e0f4036	0.13989338
194	0x3ee91e67	0.45531008
195	0xbe002bc4	-0.12516695
196	0xbf2dfec6	-0.6796688
197	0x3c86fe09	0.016478555
198	0x3cd7e7c5	0.026355634
199	0xbdeae73e	-0.11469887
200	0xbeee89e6	-0.46589583
201	0xbc1f6b2e	-0.0097301435
202	0xbf1397af	-0.57653326
203	0xbc051f3d	-0.008125124
204	0x3eb595aa	0.35465747
205	0xbd0cc066	-0.034363173
206	0x3eab472e	0.33452743
207	0x3eb58933	0.35456237
208	0xbae22100	-0.0017252266
209	0x3cdb13bc	0.026742809
210	0x3fced617	1.6159085
211	0xbccbbc34	-0.024870016
212	0x3dc976c2	0.098371044
213	0x3c57a62d	0.013162178
214	0x3ec8f642	0.3925038
215	0x3e474d0b	0.19462983
216	0x3e88868a	0.26665145
217	0x3eea8253	0.45802554
218	0x3ed0bf76	0.40771073
219	0x3d00ec13	0.031475138
220	0xbc0b4ffb	-0.008502956
221	0x3ee4cbec	0.4468683
222	0x3d3ac7a4	0.04560055
223	0x3e9de0f4	0.30835688
224	0x3dcc1e50	0.09966719
225	0x3edfee3a	0.4373644
226	0x3d598bd7	0.053111877
227	0x3e8ac524	0.2710353
228	0x3d4b254f	0.049596127
229	0xbc798b11	-0.01523091
230	0xbea3a1d3	-0.319594
231	0x3e9e2122	0.30884653
232	0xbd22e6f7	-0.039771046
233	0xbe282495	-0.16420205
234	0xbef1e925	-0.47248188
235	0x3e9acef0	0.30236006
236	0x3ed08d05	0.4073259
237	0xbdfe2cb0	-0.12410867
238	0xbcf675ec	-0.030085526
239	0x3ef30827	0.47467157
240	0x3bb32c56	0.0054679317
241	0xbd9486ed	-0.072522976
242	0xbb786107	-0.003789963
243	0xbb2af2a4	-0.0026084566
244	0x3f9e7510	1.2379475
245	0x3c3fab9f	0.0116986325
246	0xbea7b5fe	-0.32756037
247	0x3e65cd60	0.22441626
248	0x3d7fb295	0.06242617
249	0xbc767bd2	-0.0150441695
250	0xbe7b2e41	-0.24529363
251	0x3ed4a01e	0.4152841
252	0xbee5e88a	-0.44903976
253	0xbdf41cb2	-0.11919536
254	0x3e868aa5	0.26277652
255	0x3cf8ac64	0.03035564

linear2.bias f4 [3]
0	0x3ebe0c62	0.37118822
1	0x3e5f87d6	0.21829161
2	0x3df0866b	0.11744388

exp_avg f4 [256, 11]
0	0x3e2dc86d	0.16970988
1	0x3dd511df	0.10403799
2	0x3dc4687f	0.095902435
3	0x1a71649f	4.9918913e-23
4	0x3dc9d15b	0.098543845
5	0xbb07a080	-0.002069503
6	0x3d809f72	0.06280412
7	0x80000004	-6e-45
8	0x3e237b85	0.15965088
9	0x3e23674c	0.15957373
10	0x3a749648	0.0009330255
11	0x00000004	6e-45
12	0x364caf54	3.0500423e-06
13	0x38b4ac7e	8.615198e-05
14	0x37438a74	1.1655142e-05
15	0x37c8ff2e	2.3960685e-05
16	0x381efe81	3.790716e-05
17	0x3753e0e8	1.2628945e-05
18	0x38527133	5.0173327e-05
19	0x381cc62f	3.737787e-05
20	0x374765e7	1.188505e-05
21	0x3868f5f5	5.5542176e-05
22	0x80000004	-6e-45
23	0x00000004	6e-45
24	0xb9ee95c2	-0.00045506476
25	0x80000004	-6e-45
26	0x00000004	6e-45
27	0xb9ee95c2	-0.00045506476
28	0x00000004	6e-45
29	0xb60170f8	-1.9288254e-06
30	0xb9ae0468	-0.0003319115
31	0xb9c30623	-0.0003719787
32	0xb414bec4	-1.3852974e-07
33	0x3a201525	0.00061066664
34	0x3bafbefc	0.0053633433
35	0xb9270af0	-0.00015930436
36	0x3ba98cd4	0.0051742587
37	0x38ad090a	8.2509665e-05
38	0x38bd1b10	9.017263e-05
39	0x3956695e	0.00020447883
40	0x390b87c8	0.00013306655
41	0x3bb15090	0.005411215
42	0x3baaf713	0.005217442
43	0x39856b32	0.00025447604
44	0x3d2d5946	0.042321466
45	0x3a8f35dc	0.0010926086
46	0x3a61aafa	0.00086085463
47	0x3b315e1a	0.0027064146
48	0x00000004	6e-45
49	0xbba80d44	-0.0051285345
50	0x3d091a64	0.033472434
51	0xbaf3e2cc	-0.001860702
52	0x3cfe0932	0.031010244
53	0x3d199184	0.03749229
54	0xba0ef992	-0.0005454059
55	0x00000004	6e-45
56	0x00000004	6e-45
57	0x00000000	0.0
58	0x00000004	6e-45
59	0x00000004	6e-45
60	0x00000000	0.0
61	0x00000000	0.0
62	0x00000004	6e-45
63	0x00000004	6e-45
64	0x00000000	0.0
65	0x00000004	6e-45
66	0x3baae23f	0.005214959
67	0xbc5f29d1	-0.01362081
68	0xbc65f0ff	-0.014034509
69	0x3b987147	0.0046521756
70	0xbc6747a7	-0.014116204
71	0x3a39576f	0.00070702186
72	0x3c7f296e	0.015573842
73	0x3970515c	0.00022918492
74	0x3bc73839	0.0060797003
75	0x3bac6690	0.00526125
76	0x3a26eb33	0.0006367445
77	0xb7534617	-1.2592899e-05
78	0x38c7160d	9.493167e-05
79	0x39a93d4d	0.00032279865
80	0x38746d63	5.8276008e-05
81	0xb90beccf	-0.00013344291
82	0x393b807d	0.00017881575
83	0x00000004	6e-45
84	0xba315a86	-0.0006765503
85	0x391d1bfe	0.00014983115
86	0x3a6919e1	0.0008892101
87	0xb81295f3	-3.4948764e-05
88	0x37c0f396	2.3001612e-05
89	0x31a1b313	4.706075e-09
90	0x381af20c	3.6941885e-05
91	0x00000004	6e-45
92	0x39a8c8f0	0.00032193167
93	0xb3bb5e4d	-8.725019e-08
94	0x234ecaa8	1.12101965e-17
95	0x31de809f	6.475673e-09
96	0x00000004	6e-45
97	0x95b77ebc	-7.411306e-26
98	0x39a8bd39	0.0003218444
99	0x39e5f395	0.00043859766
100	0x3b784b44	0.0037886659
101	0xb98ed278	-0.00027241162
102	0x3b966e62	0.0045907954
103	0x38a23bf9	7.735933e-05
104	0x374b25b7	1.2108524e-05
105	0x379fa102	1.9029252e-05
106	0x3a6483db	0.0008717158
107	0x3b6cd9f6	0.0036140657
108	0x3b685fa7	0.0035457404
109	0x39f9a5ac	0.00047616416
110	0xbbff9a2e	-0.007800362
111	0xb9a494ce	-0.00031391386
112	0x8b939082	-5.683977e-32
113	0xbaea796d	-0.0017888971
114	0x38150f3f	3.5538567e-05
115	0xb7b02395	-2.0997404e-05
116	0xbbb7953f	-0.0056025083
117	0xb77a5602	-1.4921186e-05
118	0xbbc7b555	-0.0060946145
119	0xbbe265d3	-0.006909111
120	0xb92a3f1c	-0.00016235973
121	0x80000004	-6e-45
122	0x80000004	-6e-45
123	0x00000004	6e-45
124	0x80000004	-6e-45
125	0x80000004	-6e-45
126	0x80000004	-6e-45
127	0x80000004	-6e-45
128	0x00000004	6e-45
129	0x80000004	-6e-45
130	0x00000004	6e-45
131	0x80000004	-6e-45
132	0x3be101b5	0.0068666586
133	0x3b52f52a	0.0032189586
134	0x3bd210a5	0.0064106756
135	0xba296e2e	-0.00064632564
136	0x3bda9acf	0.0066712867
137	0x3a2adb0e	0.0006517627
138	0xb9ee6029	-0.00045466542
139	0x3912681c	0.00013962429
140	0x3bba094c	0.005677378
141	0x3bd12bc5	0.0063833916
142	0xb999bb45	-0.0002932196
143	0x00000000	0.0
144	0x00000000	0.0
145	0x00000000	0.0
146	0x00000004	6e-45
147	0x00000004	6e-45
148	0x00000004	6e-45
149	0x00000000	0.0
150	0x00000004	6e-45
151	0x00000004	6e-45
152	0x00000000	0.0
153	0x00000004	6e-45
154	0xbdde0cc5	-0.10842279
155	0xbc2a6a97	-0.01040139
156	0xbc216380	-0.009850383
157	0x384858b2	4.776632e-05
158	0xbc2cb427	-0.010540999
159	0x39c55672	0.00037639175
160	0xbda3f60f	-0.08005916
161	0x3891f02f	6.9588765e-05
162	0xbdb92619	-0.0904047
163	0xbdb95b7e	-0.09050654
164	0x385174e7	4.9938357e-05
165	0x80000004	-6e-45
166	0x00000004	6e-45
167	0xb706c923	-8.033853e-06
168	0x00000004	6e-45
169	0x00000004	6e-45
170	0x80000004	-6e-45
171	0xb706c923	-8.033853e-06
172	0xb706c923	-8.033853e-06
173	0x80000004	-6e-45
174	0x00000004	6e-45
175	0x00000004	6e-45
176	0x80000004	-6e-45
177	0x00000004	6e-45
178	0x80000004	-6e-45
179	0x80000004	-6e-45
180	0x00000004	6e-45
181	0x00000004	6e-45
182	0x80000004	-6e-45
183	0x00000004	6e-45
184	0x00000004	6e-45
185	0x00000004	6e-45
186	0x00000004	6e-45
187	0x80000004	-6e-45
188	0xb9eb0a90	-0.00044830563
189	0xb8fda377	-0.00012094428
190	0xb9eb41f5	-0.00044871835
191	0x00000004	6e-45
192	0x3a3c75f3	0.00071892067
193	0x00000004	6e-45
194	0xb9eb0a90	-0.00044830563
195	0x3a3c5a41	0.000718508
196	0x00000004	6e-45
197	0x00000004	6e-45
198	0x80000004	-6e-45
199	0xbb616f62	-0.0034398665
200	0xba6c08a5	-0.00090039737
201	0xbbaa76db	-0.005202157
202	0x00000004	6e-45
203	0x00000004	6e-45
204	0x00000004	6e-45
205	0x00000004	6e-45
206	0xbb616f62	-0.0034398665
207	0xbbaa76db	-0.005202157
208	0x00000004	6e-45
209	0x3c6a989d	0.014318612
210	0x3c819fcb	0.015823266
211	0x3c647d35	0.013945867
212	0x3aa7caa7	0.0012801484
213	0x3c5697df	0.013097732
214	0x39b279a5	0.00034041438
215	0xbac63c5e	-0.0015124192
216	0x3929859a	0.00016166866
217	0x3c684cc5	0.0141784595
218	0x3c637362	0.01388249
219	0xba533cf7	-0.00080580957
220	0x3b1d0072	0.0023956564
221	0x3a15446d	0.0005694095
222	0xb8877834	-6.459691e-05
223	0x39cbf354	0.0003890047
224	0x3905d1e6	0.00012762062
225	0x39bccb9c	0.00036009855
226	0x3b102731	0.0021996016
227	0x3996696d	0.00028688778
228	0x3b34da2c	0.002759586
229	0x3b36c06c	0.0027885688
230	0x399f25f0	0.0003035511
231	0x00000004	6e-45
232	0x00000004	6e-45
233	0x00000004	6e-45
234	0x00000004	6e-45
235	0x00000004	6e-45
236	0x00000004	6e-45
237	0x80000004	-6e-45
238	0x00000004	6e-45
239	0x80000004	-6e-45
240	0x00000004	6e-45
241	0x00000004	6e-45
242	0xb90c0d17	-0.00013356317
243	0x3a296409	0.0006461745
244	0xb9860d6c	-0.00025568472
245	0x39ff8be4	0.00048741617
246	0x371e9203	9.45153e-06
247	0xb9ea4cc6	-0.0004468916
248	0xb4a7d3bb	-3.1260228e-07
249	0xb9c7c159	-0.00038100293
250	0x39b16022	0.00033831695
251	0x3a3aff53	0.0007133383
252	0xb9bdaa3f	-0.00036175732
253	0x80000004	-6e-45
254	0x00000004	6e-45
255	0x00000004	6e-45

exp_avg_sq f4 [256, 11]
0	0x3c165305	0.009175067
1	0x3bb8b207	0.005636457
2	0x3b9b826c	0.004745772
3	0x392043af	0.00015284003
4	0x3cd4ba75	0.025967816
5	0x3b1d8f0b	0.002404156
6	0x3c5d87e3	0.013521167
7	0x37333b3f	1.0683026e-05
8	0x3cfbbc59	0.03072946
9	0x3c8a7aa6	0.016904186
10	0x3c0c4858	0.00856217
11	0x3678d2e9	3.7077646e-06
12	0x3456a0e6	1.9988838e-07
13	0x3811777f	3.4681983e-05
14	0x376bf5d3	1.4064327e-05
15	0x3642c32d	2.902186e-06
16	0x35f56479	1.8283164e-06
17	0x3780a329	1.5334766e-05
18	0x37a2f957	1.9428013e-05
19	0x36a19762	4.815797e-06
20	0x37c75dee	2.3766388e-05
21	0x3707b310	8.088318e-06
22	0x2dc2f8e6	2.216578e-11
23	0x24a0ffb8	6.9822143e-17
24	0x3aae1a47	0.0013282978
25	0x26357d49	6.2966783e-16
26	0x387fccb5	6.0987386e-05
27	0x3aa639ed	0.0012682058
28	0x2b09eeb2	4.9003434e-13
29	0x3997f887	0.00028986132
30	0x3a80fd2a	0.0009841074
31	0x3825e3c1	3.9551178e-05
32	0x39a3d066	0.00031245052
33	0x39cb9956	0.0003883342
34	0x3a4742ea	0.00076012185
35	0x383d8dc7	4.5193152e-05
36	0x3ab6fc8a	0.001396076
37	0x39a078b3	0.00030607506
38	0x38a4e737	7.8631965e-05
39	0x3a63253e	0.00086649123
40	0x39d47d26	0.00040529034
41	0x3aa2732c	0.0012393943
42	0x39cc1334	0.0003892422
43	0x3ad0b25e	0.0015922298
44	0x3c04f05a	0.008113945
45	0x3bc19460	0.0059075803
46	0x3c0a37bd	0.008436141
47	0x3cbf82f6	0.023377877
48	0x24999e4f	6.662136e-17
49	0x3ce1addd	0.027548725
50	0x3cf047ce	0.029331114
51	0x3d39a488	0.045322925
52	0x3c86af0f	0.016440896
53	0x3d12b0ee	0.035813265
54	0x3d1d2464	0.038364783
55	0x0303b788	3.8708124e-37
56	0x0303b788	3.8708124e-37
57	0x00000000	0.0
58	0x000001f4	7e-43
59	0x0303b788	3.8708124e-37
60	0x00000000	0.0
61	0x00000000	0.0
62	0x000001f4	7e-43
63	0x000001f4	7e-43
64	0x00000000	0.0
65	0x0303b788	3.8708124e-37
66	0x3adb6dbd	0.0016741079
67	0x3a10ca09	0.00055232696
68	0x398635c8	0.00025598542
69	0x3ad8c54b	0.001653829
70	0x39cfe851	0.00039655206
71	0x3a14b918	0.0005673333
72	0x3a9f1156	0.0012135904
73	0x39828ec9	0.00024901915
74	0x3adff4d7	0.0017086518
75	0x3ac8790f	0.0015294867
76	0x3a97b2e1	0.0011573696
77	0x3a770097	0.000942239
78	0x3a8f1527	0.0010916338
79	0x3a0f7d72	0.000547371
80	0x2fbab3c4	3.3960934e-10
81	0x3ad95a8e	0.0016582774
82	0x3b15d2f0	0.0022861324
83	0x2ea1d823	7.359826e-11
84	0x3ac46582	0.0014983865
85	0x38003bb5	3.0573185e-05
86	0x3b1e5a51	0.002416272
87	0x37e6cd62	2.7513775e-05
88	0x2edf5fa2	1.0157854e-10
89	0x3b8e32cc	0.0043395516
90	0x39045933	0.0001262173
91	0x111ed4c5	1.2529567e-28
92	0x3bb63bd7	0.0055613327
93	0x36217ad9	2.4062376e-06
94	0x38892872	6.5402026e-05
95	0x3b894936	0.0041896356
96	0x345146f2	1.9490452e-07
97	0x36365ae2	2.7173014e-06
98	0x3bb7fe34	0.00561502
99	0x3a91a0aa	0.0011110504
100	0x3a989cf2	0.0011643453
101	0x3a92d9f9	0.0011203877
102	0x3ab27d7f	0.0013617723
103	0x3a6010fe	0.0008547454
104	0x38c78f4d	9.515751e-05
105	0x3a8cd64e	0.001074502
106	0x3af70f9b	0.0018849255
107	0x39e4d92d	0.00043649357
108	0x3a7d09e8	0.000965266
109	0x3aca194e	0.0015418918
110	0x397eedc4	0.00024311902
111	0x37bb9d15	2.2365284e-05
112	0x36477cfd	2.9726064e-06
113	0x36f800f0	7.391085e-06
114	0x39171b80	0.00014410727
115	0x37c6b684	2.368843e-05
116	0x38c6a756	9.4725445e-05
117	0x37e8e268	2.7761984e-05
118	0x39326120	0.00017011585
119	0x38da39f8	0.000104058476
120	0x37ccb363	2.4402229e-05
121	0x2d7d9c11	1.4416039e-11
122	0x358cc1b5	1.0487189e-06
123	0x2833c16c	9.978438e-15
124	0x24026f1a	2.8283363e-17
125	0x2690b66e	1.0041455e-15
126	0x358cc1a9	1.0487175e-06
127	0x2b861366	9.526657e-13
128	0x358cab6e	1.0480705e-06
129	0x302f050c	6.36718e-10
130	0x2dd7de19	2.4541301e-11
131	0x300c2e73	5.099771e-10
132	0x3b26501b	0.0025377336
133	0x390e01af	0.00013542802
134	0x39a79eac	0.00031970942
135	0x3ad7867b	0.0016443277
136	0x3879cc80	5.955668e-05
137	0x3afae9b3	0.0019143134
138	0x38b2e272	8.52988e-05
139	0x3a1c0b05	0.000595257
140	0x3a8fec40	0.0010980442
141	0x3b2bd607	0.00262201
142	0x39d36404	0.00040319574
143	0x00000000	0.0
144	0x00000000	0.0
145	0x00000000	0.0
146	0x000001f4	7e-43
147	0x000001f4	7e-43
148	0x000001f4	7e-43
149	0x00000000	0.0
150	0x000001f4	7e-43
151	0x000001f4	7e-43
152	0x00000000	0.0
153	0x000001f4	7e-43
154	0x3cad9460	0.021188915
155	0x3a4af49e	0.0007742139
156	0x3a1e4ec4	0.00060389587
157	0x3b589cf3	0.0033052533
158	0x3cad7a66	0.021176528
159	0x3c21c72e	0.009874148
160	0x3c0ee968	0.008722641
161	0x3beb4e81	0.0071809893
162	0x3c180b5f	0.009280055
163	0x3d1e1275	0.03859182
164	0x39dd80b7	0.00042248305
165	0x27f469a3	6.7838136e-15
166	0x2b089f6e	4.853816e-13
167	0x322d6c93	1.0094612e-08
168	0x31a4e5e0	4.799162e-09
169	0x2b828020	9.272617e-13
170	0x2b211827	5.723221e-13
171	0x3153cde1	3.082157e-09
172	0x32279999	9.755603e-09
173	0x2d881044	1.5468633e-11
174	0x3088d4f2	9.955825e-10
175	0x2cdd6cad	6.2932632e-12
176	0x000001f4	7e-43
177	0x000001f4	7e-43
178	0x000001f4	7e-43
179	0x000001f4	7e-43
180	0x000001f4	7e-43
181	0x000001f4	7e-43
182	0x000001f4	7e-43
183	0x000001f4	7e-43
184	0x000001f4	7e-43
185	0x000001f4	7e-43
186	0x000001f4	7e-43
187	0x25d3e766	3.6759467e-16
188	0x38d21c1c	0.00010018816
189	0x330fb774	3.346163e-08
190	0x396d9e1d	0.00022660983
191	0x30e2333c	1.6458226e-09
192	0x34290257	1.5740203e-07
193	0x364452de	2.925451e-06
194	0x38cbf604	9.725618e-05
195	0x390adde9	0.00013243374
196	0x2e820a65	5.913562e-11
197	0x27a275da	4.5091807e-15
198	0x1f519bd3	4.4386366e-20
199	0x395f8af3	0.000213187
200	0x39c038cb	0.00036663408
201	0x3acf0d98	0.0015796898
202	0x38094244	3.272506e-05
203	0x20d256db	3.563286e-19
204	0x1c89ef01	9.127681e-22
205	0x2986ab0f	5.9804693e-14
206	0x392e1cec	0.00016604707
207	0x3ad07aae	0.0015905702
208	0x37b739a8	2.1842148e-05
209	0x3b4b4d02	0.0031021242
210	0x3b490852	0.0030675125
211	0x3b9cd31a	0.0047859075
212	0x3cbc5bc1	0.02299297
213	0x3d009402	0.03139115
214	0x39b864e3	0.0003517038
215	0x3b351f33	0.0027637004
216	0x3b67368d	0.0035280318
217	0x3b0c788d	0.0021434159
218	0x3cf550eb	0.029945811
219	0x3cfa7c98	0.030576989
220	0x3b3405af	0.0027469208
221	0x3ab4ad46	0.001378455
222	0x3a90751c	0.001102123
223	0x39bdb095	0.00036180453
224	0x3b2ef200	0.0026694536
225	0x39b1409a	0.00033808203
226	0x3c37f1c7	0.011227078
227	0x3c56abd4	0.01310249
228	0x3925d991	0.00015816676
229	0x3b9a7993	0.0047142
230	0x3afc8535	0.0019265773
231	0x0b0bb14b	2.6903807e-32
232	0x0566fdaa	1.0861139e-35
233	0x0df6129e	1.5165402e-30
234	0x0d9ee367	9.792247e-31
235	0x0d2e5c37	5.372889e-31
236	0x0584700f	1.2454384e-35
237	0x05705fe8	1.1302361e-35
238	0x0d9cf523	9.673257e-31
239	0x00091553	8.34169e-40
240	0x0d9c9fbb	9.652696e-31
241	0x0a367a11	8.7859394e-33
242	0x3a50d079	0.0007965635
243	0x397aa071	0.00023901627
244	0x3ae11f4b	0.0017175464
245	0x3a99d117	0.0011735287
246	0x37daa3ea	2.6063954e-05
247	0x3bfebe09	0.007774119
248	0x37efe08c	2.8595583e-05
249	0x3aaec270	0.0013333093
250	0x3be8a7c9	0.0071000797
251	0x3940d1f6	0.00018388763
252	0x3c0e65ec	0.008691292
253	0x000001f4	7e-43
254	0x000001f4	7e-43
255	0x000001f4	7e-43

exp_avg f4 [256]
0	0x3e2319e4	0.15927845
1	0x38b4ac7e	8.615198e-05
2	0xb9ee95c2	-0.00045506476
3	0x3bb5e8af	0.0055514197
4	0x3cfe5d3d	0.031050319
5	0x00000004	6e-45
6	0x3bdf5fc0	0.006816834
7	0x38d95e36	0.000103649145
8	0x39a8bd39	0.0003218444
9	0x3b99fc8a	0.0046992945
10	0xbbf1b99f	-0.007376864
11	0x80000004	-6e-45
12	0x3bcbe267	0.0062220576
13	0x00000004	6e-45
14	0xbdb8ae32	-0.090176
15	0xb706c923	-8.033853e-06
16	0x00000004	6e-45
17	0x398da9f2	0.00027020235
18	0xbbaa76db	-0.005202157
19	0x3c585d73	0.013205874
20	0x3b499c30	0.003076326
21	0x00000004	6e-45
22	0x38504d6a	4.9663162e-05
23	0x00000004	6e-45
24	0x00000004	6e-45
25	0xba8b51d7	-0.0010629249
26	0x3b05f31f	0.00204391
27	0x00000004	6e-45
28	0x3d06da85	0.03292324
29	0x3e18c15e	0.14917514
30	0xbd61fccc	-0.055172727
31	0x00000004	6e-45
32	0x00000004	6e-45
33	0x3cf84c58	0.030309841
34	0x00000004	6e-45
35	0x3bf0af55	0.00734512
36	0x3b9901a0	0.004669383
37	0x3d9ebd18	0.077509105
38	0x399e10e0	0.0003014868
39	0x3cc7961e	0.024363574
40	0xbdfb62e0	-0.12274718
41	0x3d4e8bb8	0.050426215
42	0xb9dda331	-0.00042273992
43	0x3d47fa1a	0.0488225
44	0xb7679981	-1.3804413e-05
45	0xbddf88cd	-0.109147646
46	0x00000004	6e-45
47	0x00000004	6e-45
48	0xb79defb5	-1.882748e-05
49	0xbe0c5487	-0.1370412
50	0x00000004	6e-45
51	0x00000004	6e-45
52	0x80000004	-6e-45
53	0x3ab71c05	0.0013970142
54	0xb9496af0	-0.00019208691
55	0xbd4e291e	-0.05033218
56	0x3bd7ab37	0.0065816897
57	0x3da619d9	0.08110399
58	0xbdf7e9f5	-0.12105171
59	0xbaa63573	-0.0012680724
60	0x3d6441c4	0.05572678
61	0x3aade3c8	0.0013266737
62	0x3968a1b2	0.0002218548
63	0xbe1b1a57	-0.15146767
64	0xbda427c2	-0.08015396
65	0xbd8e72c8	-0.069554865
66	0x3aca5bfe	0.0015438793
67	0x3ded932a	0.11600335
68	0xbb2aba1b	-0.002605087
69	0x3dc6cbdc	0.09706852
70	0x356f6e4a	8.919493e-07
71	0x3b29f47a	0.0025933073
72	0x3b1e818b	0.00241861
73	0x3c782907	0.0151465
74	0xbabd6e89	-0.0014452498
75	0x00000004	6e-45
76	0x3dc6f21e	0.09714149
77	0x00000004	6e-45
78	0x3b56974d	0.003274399
79	0xb909993a	-0.0001312242
80	0x00000004	6e-45
81	0x39c9da83	0.0003850051
82	0x00000004	6e-45
83	0x3d0f918d	0.035050917
84	0x3b94f68f	0.0045459936
85	0x3c25f1b7	0.01012843
86	0x386ddc8b	5.67106e-05
87	0x00000004	6e-45
88	0x3c0f9971	0.008764611
89	0xb8b3ae02	-8.5677966e-05
90	0xb9d54589	-0.00040678334
91	0xbd445177	-0.047929253
92	0x00000004	6e-45
93	0xb9b9594f	-0.0003535249
94	0x38281008	4.006925e-05
95	0x00000004	6e-45
96	0x3e5056a5	0.20345552
97	0xbbd3e19d	-0.006466104
98	0x3b3026e5	0.0026878652
99	0x3c16f286	0.0092130955
100	0x3c5e9f8e	0.0135878455
101	0xb64b33c7	-3.0279496e-06
102	0xba40dc40	-0.00073570386
103	0xbd0de83a	-0.034645297
104	0x3d4fe79d	0.050757993
105	0x3d12c6e0	0.035834193
106	0xbd799424	-0.060932294
107	0x00000004	6e-45
108	0x00000004	6e-45
109	0xbd9efc8d	-0.07763014
110	0xb918131f	-0.00014502973
111	0xbd9f9a67	-0.07793122
112	0xbc921205	-0.017830858
113	0x00000004	6e-45
114	0xba9c9576	-0.0011946398
115	0x00000004	6e-45
116	0x3ccc7c26	0.024961542
117	0x00000004	6e-45
118	0x3e47294f	0.19449352
119	0xbd966874	-0.073441416
120	0x3de25204	0.110507995
121	0xbc3b9cad	-0.011450929
122	0x3a5ab39f	0.00083428057
123	0x3ce64099	0.028106974
124	0xbd55b922	-0.05217851
125	0xba0c79ab	-0.0005358706
126	0xbd42505a	-0.04743991
127	0x3b1d17ed	0.002397056
128	0xb6d7cc93	-6.431315e-06
129	0x00000004	6e-45
130	0x00000004	6e-45
131	0xbe18cf07	-0.14922725
132	0xbdfd16a9	-0.12357838
133	0xba816ec3	-0.0009874929
134	0x3a96590e	0.0011470632
135	0xbbe85f25	-0.0070914202
136	0x3b052ce9	0.0020320958
137	0xbd319bcc	-0.04336147
138	0x00000004	6e-45
139	0x00000000	0.0
140	0x3cd9bb90	0.026578695
141	0xbdb6da0a	-0.089283064
142	0x00000004	6e-45
143	0xbc06df9f	-0.008232026
144	0xbc1f4b54	-0.0097225495
145	0x00000000	0.0
146	0x00000004	6e-45
147	0x00000004	6e-45
148	0x3b379ea2	0.0028018137
149	0x3bb29ef6	0.0054510785
150	0x00000004	6e-45
151	0x3dd1af92	0.102385655
152	0xbaee4f72	-0.0018181636
153	0x3c339ba6	0.010962402
154	0x3b60215b	0.003419957
155	0x00000004	6e-45
156	0x3d5393fc	0.0516548
157	0x3cbfe72f	0.023425667
158	0xbc350100	-0.011047602
159	0x00000004	6e-45
160	0xbde7e9eb	-0.11323913
161	0xbd5d54a8	-0.054035813
162	0x3b1edd24	0.0024240697
163	0xb7c3ffdb	-2.3364953e-05
164	0x399bd00c	0.0002971891
165	0x00000004	6e-45
166	0x3ae2ed42	0.001731314
167	0xbc37f642	-0.011228146
168	0x3d3ae2a8	0.045626312
169	0x00000004	6e-45
170	0x3a7f46a2	0.0009738003
171	0xbc8f3bf2	-0.017484639
172	0xbe009ade	-0.12559077
173	0xbd224446	-0.039615892
174	0x3bc34558	0.005959194
175	0x3a103e69	0.0005502464
176	0xb8abeff3	-8.1986094e-05
177	0x3d381a74	0.044947103
178	0x00000004	6e-45
179	0x00000004	6e-45
180	0xbd8a5b88	-0.067557395
181	0x00000004	6e-45
182	0x3d0c8912	0.034310408
183	0x00000004	6e-45
184	0x00000004	6e-45
185	0xbc3debda	-0.011591876
186	0xbcee2b2c	-0.02907332
187	0xbda49561	-0.08036304
188	0x00000004	6e-45
189	0x3de0521f	0.10953163
190	0x3d03b2fa	0.032153107
191	0x3cc4535f	0.023965536
192	0xbd5723bf	-0.052524325
193	0x00000004	6e-45
194	0x3b95a312	0.0045665586
195	0xbd607b08	-0.05480483
196	0x3b85e808	0.004086498
197	0x00000004	6e-45
198	0x00000004	6e-45
199	0x00000004	6e-45
200	0x3b91f20b	0.0044539026
201	0x00000004	6e-45
202	0xbdd17c53	-0.10228791
203	0x00000004	6e-45
204	0x3dd37e9a	0.10326882
205	0x3930c651	0.00016858547
206	0x3ce9073c	0.028445832
207	0x393458ea	0.00017199261
208	0x00000000	0.0
209	0x3bc82f68	0.006109167
210	0xbcacaf98	-0.021079823
211	0x3d083d6a	0.033261694
212	0x3b5e4dd0	0.0033920892
213	0x3b41a9de	0.0029550712
214	0xba35e900	-0.0006939322
215	0x3d5e3d72	0.054257818
216	0x3d95a750	0.07307303
217	0xbad0191a	-0.0015876621
218	0x3b980895	0.004639695
219	0xb82a4f2e	-4.06049e-05
220	0x00000004	6e-45
221	0xbb0cfe7c	-0.002151399
222	0x3846e761	4.7422367e-05
223	0x00000004	6e-45
224	0x3cf4a941	0.029865863
225	0xba2ad0e3	-0.0006516112
226	0x3c68b28b	0.014202724
227	0xba7b015d	-0.0009575093
228	0x00000004	6e-45
229	0x00000004	6e-45
230	0xbd2295b2	-0.03969354
231	0xbb9afc37	-0.0047297734
232	0x00000004	6e-45
233	0xbd5fdc82	-0.054653652
234	0xbdbd0fe2	-0.09231545
235	0x00000004	6e-45
236	0x3ad66eb2	0.0016359894
237	0xbd87f27d	-0.06638048
238	0x39584fe8	0.00020629133
239	0x3ad3a9fc	0.0016148682
240	0x3a2d69d9	0.0006615199
241	0xbcaaac2b	-0.02083405
242	0x38b8f26b	8.8189576e-05
243	0xb7da8be3	-2.6052765e-05
244	0xbaa6df10	-0.0012731273
245	0x00000004	6e-45
246	0xbdf2c143	-0.11853268
247	0xbb444774	-0.0029949816
248	0x00000004	6e-45
249	0x00000004	6e-45
250	0xbd2c58fb	-0.042077046
251	0x39b3e35f	0.00034310945
252	0xbc3d0622	-0.011537107
253	0x39b4a6e2	0.00034456613
254	0x3d3608cf	0.044441994
255	0x3c1769d7	0.009241543

exp_avg_sq f4 [256]
0	0x3d149344	0.036273256
1	0x3811777f	3.4681983e-05
2	0x3aae3872	0.0013291968
3	0x3b1e2d67	0.0024135949
4	0x3d475039	0.04866049
5	0x0303b788	3.8708124e-37
6	0x3b6cc48f	0.00361279
7	0x3b10454e	0.0022013965
8	0x3bb81500	0.005617738
9	0x3b36255b	0.0027793262
10	0x398bc2a2	0.0002665716
11	0x358cc1b5	1.0487189e-06
12	0x3b6ad475	0.00358322
13	0x000001f4	7e-43
14	0x3d239407	0.03993609
15	0x322d6cd0	1.0094666e-08
16	0x000001f4	7e-43
17	0x3970c7aa	0.00022962564
18	0x3ad357a7	0.0016124145
19	0x3d77d2a6	0.060503624
20	0x3c6be6f1	0.014398322
21	0x0df6129e	1.5165402e-30
22	0x3c11debc	0.008903202
23	0x000001f4	7e-43
24	0x000001f4	7e-43
25	0x3db78022	0.08959986
26	0x3bbd9bf4	0.0057864133
27	0x000001f4	7e-43
28	0x3b6629a9	0.0035120046
29	0x3d241ccd	0.04006653
30	0x3c6cad13	0.014445561
31	0x000001f4	7e-43
32	0x000001f4	7e-43
33	0x39c11c40	0.00036832877
34	0x002cc438	4.111152e-39
35	0x3c5b07a0	0.013368517
36	0x3c566fa4	0.013088141
37	0x3b2cdc45	0.0026376408
38	0x3c106831	0.008813904
39	0x3d24fbbf	0.040279146
40	0x3c729a1c	0.01480725
41	0x3a85ce7b	0.0010208631
42	0x3aa4d345	0.001257517
43	0x3c18558a	0.009297738
44	0x388718f2	6.441948e-05
45	0x3daa57a3	0.08317497
46	0x000001f4	7e-43
47	0x0004ab57	4.28807e-40
48	0x3a976ee2	0.0011553431
49	0x3d96a751	0.07356132
50	0x3427e550	1.563651e-07
51	0x14d768d1	2.1750795e-26
52	0x2883c545	1.4629474e-14
53	0x3cfd067a	0.030886877
54	0x360dfd05	2.1157914e-06
55	0x3c3a333d	0.011364755
56	0x3dbcf6f6	0.092267916
57	0x3cc1dd9f	0.023665247
58	0x3ca3917d	0.019966835
59	0x3cb82314	0.022477664
60	0x3bf2b826	0.007407206
61	0x3b9b2f97	0.0047358978
62	0x3bdb47f8	0.006691929
63	0x3ddbd88f	0.10734665
64	0x3d183431	0.03715915
65	0x3c292e22	0.01032594
66	0x3c8b2946	0.016987454
67	0x3bda6bd7	0.0066656875
68	0x379fe70b	1.9061865e-05
69	0x3caa1e4a	0.020766396
70	0x3567f2b4	8.6407385e-07
71	0x3b4bce0e	0.003109816
72	0x39014279	0.00012327162
73	0x3d6adc79	0.057339165
74	0x3c3fb08f	0.01169981
75	0x14862b46	1.354761e-26
76	0x3ceedef1	0.029159041
77	0x000001f4	7e-43
78	0x3c424ad5	0.011858662
79	0x3a0ad9b1	0.0005296721
80	0x000001f4	7e-43
81	0x3cd711a8	0.026253536
82	0x2c526e47	2.9904011e-12
83	0x3bb88998	0.005631637
84	0x3bca149c	0.0061670076
85	0x3cba90cb	0.02277412
86	0x3b807f99	0.003921461
87	0x0d0bacfa	4.3040895e-31
88	0x3b7cee1f	0.003859408
89	0x374a06c1	1.2041711e-05
90	0x3c8b3dd2	0.016997252
91	0x3b710e87	0.003678234
92	0x06b9d676	6.990439e-35
93	0x3a476b94	0.0007607278
94	0x36a96d51	5.0493186e-06
95	0x000001f4	7e-43
96	0x3c8edc68	0.017439082
97	0x3c0953e4	0.0083818175
98	0x3b030ce5	0.00199967
99	0x3a4aed05	0.0007741007
100	0x3af56912	0.001872333
101	0x36a0c067	4.79077e-06
102	0x3ac07a97	0.0014684972
103	0x3cde0ed3	0.027106678
104	0x3c218082	0.009857299
105	0x3c85ddbc	0.016341083
106	0x3becfe7b	0.007232485
107	0x000001f4	7e-43
108	0x131df691	1.9937753e-27
109	0x3ca5a5d7	0.02022068
110	0x393dcce2	0.0001810077
111	0x3cf87fcc	0.030334376
112	0x3a200bbc	0.0006105264
113	0x000001f4	7e-43
114	0x3bf5cb24	0.007501023
115	0x000001f4	7e-43
116	0x3c00935c	0.007847633
117	0x275025c3	2.888627e-15
118	0x3c704296	0.014664313
119	0x3c2c82b7	0.010529212
120	0x3be841a5	0.0070879036
121	0x3c051f52	0.008125143
122	0x3b9231db	0.0044615096
123	0x3cb71957	0.02235095
124	0x3b99361a	0.004675639
125	0x3a890505	0.0010453766
126	0x3c14e6c0	0.009088218
127	0x3a84e4a3	0.001013894
128	0x364f3569	3.0876492e-06
129	0x0b632107	4.3743457e-32
130	0x000001f4	7e-43
131	0x3e1f080b	0.15530412
132	0x3c167f78	0.009185664
133	0x3bf7bc4a	0.0075602876
134	0x3b51b1f8	0.0031996947
135	0x3b582fc2	0.003298745
136	0x3c947988	0.018124357
137	0x3bdf6f10	0.0068186596
138	0x000001f4	7e-43
139	0x00000000	0.0
140	0x3a14fb95	0.00056832406
141	0x3d79ac08	0.060955077
142	0x000001f4	7e-43
143	0x3883bcf4	6.281762e-05
144	0x3cc06fc3	0.023490792
145	0x00000000	0.0
146	0x0bc83a13	7.712458e-32
147	0x000001f4	7e-43
148	0x39ee370f	0.0004543592
149	0x3e13dbef	0.14439367
150	0x000001f4	7e-43
151	0x3d52cf9a	0.051467516
152	0x3ba223c4	0.0049481113
153	0x387ecde1	6.075006e-05
154	0x3ab274b6	0.0013615105
155	0x27afd182	4.8799406e-15
156	0x3cff94e2	0.031198923
157	0x3c0306bc	0.007997211
158	0x3ae05823	0.001711611
159	0x35838eb8	9.801797e-07
160	0x3c9768e9	0.018482642
161	0x3e1ffe0a	0.15624252
162	0x3d7aa01f	0.06118786
163	0x346bab28	2.1948347e-07
164	0x3b98751d	0.004652633
165	0x000001f4	7e-43
166	0x3d05e933	0.0326931
167	0x3bc9fdeb	0.0061643026
168	0x3d4be3fa	0.049777962
169	0x000001f4	7e-43
170	0x3b47945a	0.0030453415
171	0x391414c0	0.0001412211
172	0x3d6e790b	0.058220904
173	0x3d048513	0.032353472
174	0x3d2850de	0.041092746
175	0x3b5430da	0.003237775
176	0x3c868043	0.016418582
177	0x3c0c59c5	0.008566325
178	0x000001f4	7e-43
179	0x000001f4	7e-43
180	0x3c0fc2f6	0.00877451
181	0x000001f4	7e-43
182	0x3e1ff3a1	0.15620281
183	0x000001f4	7e-43
184	0x000001f4	7e-43
185	0x3c8233c3	0.015893823
186	0x3c8fbbc0	0.01754558
187	0x3d2abc38	0.041683406
188	0x09b8803e	4.4416987e-33
189	0x3d28e68d	0.041235495
190	0x3cf0789f	0.029354392
191	0x3b36fd40	0.0027921945
192	0x3bb981fa	0.0056612464
193	0x30f54436	1.7845483e-09
194	0x3c958898	0.01825361
195	0x3bb7d53d	0.005610137
196	0x395f64d5	0.000213045
197	0x000001f4	7e-43
198	0x000001f4	7e-43
199	0x000001f4	7e-43
200	0x3c6f0ae1	0.014589996
201	0x000001f4	7e-43
202	0x3d63661b	0.055517297
203	0x000001f4	7e-43
204	0x3cb854ca	0.022501368
205	0x398d9822	0.00027006964
206	0x3c1d835c	0.009613838
207	0x3c4290bd	0.011875329
208	0x00000000	0.0
209	0x3bb14bdc	0.0054106545
210	0x3b9518e6	0.0045500873
211	0x3bf8a4ad	0.0075879903
212	0x3ad31eeb	0.0016107237
213	0x3a667c0b	0.00087922876
214	0x3cd8a414	0.026445426
215	0x3c72bc79	0.014815443
216	0x3cbf447e	0.02334809
217	0x3c9eab92	0.01936892
218	0x3cbd93d8	0.023141786
219	0x37538ccf	1.2609365e-05
220	0x2612a37e	5.08755e-16
221	0x3c7dfd1e	0.015502242
222	0x39248c2e	0.0001569248
223	0x0ea693d8	4.1064528e-30
224	0x3bcd3733	0.006262684
225	0x3c9a68a7	0.01884873
226	0x39151d7a	0.00014220728
227	0x3c44d0a6	0.012012636
228	0x0c363cfd	1.4039123e-31
229	0x000001f4	7e-43
230	0x3d2e348c	0.04253058
231	0x3c638050	0.013885573
232	0x1a9512f4	6.1655576e-23
233	0x3bf85813	0.0075788586
234	0x3d85946c	0.0652245
235	0x2b515eaa	7.438309e-13
236	0x3ce43c3c	0.027860753
237	0x3c2b0a73	0.010439503
238	0x397826d9	0.00023665595
239	0x3ca9eeb9	0.020743715
240	0x3be7a8ab	0.0070696673
241	0x3c09eab9	0.008417779
242	0x38adcf26	8.287867e-05
243	0x3891196d	6.918875e-05
244	0x3bfac40c	0.007652765
245	0x000001f4	7e-43
246	0x3cd9dd3a	0.026594747
247	0x3c13d47d	0.009022829
248	0x2928636d	3.7389732e-14
249	0x000001f4	7e-43
250	0x3d02a52c	0.0318958
251	0x3c8d37cb	0.017238518
252	0x3a8736d7	0.0010316026
253	0x39cf70be	0.00039566116
254	0x3bb7fbb7	0.0056147235
255	0x3b81083f	0.0039377506
